program(1.0)
[buildInfo = dict<tensor<string, []>, tensor<string, []>>({{"coremlc-component-MIL", "3510.2.1"}, {"coremlc-version", "3500.32.1"}, {"coremltools-component-torch", "2.10.0"}, {"coremltools-source-dialect", "TorchScript"}, {"coremltools-version", "9.0"}})]
{
    func main<ios15>(tensor<fp32, [1, 80, 3000]> logmel_data) {
            tensor<string, []> var_44_pad_type_0 = const()[name = tensor<string, []>("op_44_pad_type_0"), val = tensor<string, []>("custom")];
            tensor<int32, [2]> var_44_pad_0 = const()[name = tensor<string, []>("op_44_pad_0"), val = tensor<int32, [2]>([1, 1])];
            tensor<int32, [1]> var_44_strides_0 = const()[name = tensor<string, []>("op_44_strides_0"), val = tensor<int32, [1]>([1])];
            tensor<int32, [1]> var_44_dilations_0 = const()[name = tensor<string, []>("op_44_dilations_0"), val = tensor<int32, [1]>([1])];
            tensor<int32, []> var_44_groups_0 = const()[name = tensor<string, []>("op_44_groups_0"), val = tensor<int32, []>(1)];
            tensor<string, []> logmel_data_to_fp16_dtype_0 = const()[name = tensor<string, []>("logmel_data_to_fp16_dtype_0"), val = tensor<string, []>("fp16")];
            tensor<fp16, [768, 80, 3]> const_0_to_fp16 = const()[name = tensor<string, []>("const_0_to_fp16"), val = tensor<fp16, [768, 80, 3]>(BLOBFILE(path = tensor<string, []>("@model_path/weights/weight.bin"), offset = tensor<uint64, []>(64)))];
            tensor<fp16, [768]> const_1_to_fp16 = const()[name = tensor<string, []>("const_1_to_fp16"), val = tensor<fp16, [768]>(BLOBFILE(path = tensor<string, []>("@model_path/weights/weight.bin"), offset = tensor<uint64, []>(368768)))];
            tensor<fp16, [1, 80, 3000]> logmel_data_to_fp16 = cast(dtype = logmel_data_to_fp16_dtype_0, x = logmel_data)[name = tensor<string, []>("cast_51")];
            tensor<fp16, [1, 768, 3000]> var_44_cast_fp16 = conv(bias = const_1_to_fp16, dilations = var_44_dilations_0, groups = var_44_groups_0, pad = var_44_pad_0, pad_type = var_44_pad_type_0, strides = var_44_strides_0, weight = const_0_to_fp16, x = logmel_data_to_fp16)[name = tensor<string, []>("op_44_cast_fp16")];
            tensor<string, []> input_1_mode_0 = const()[name = tensor<string, []>("input_1_mode_0"), val = tensor<string, []>("EXACT")];
            tensor<fp16, [1, 768, 3000]> input_1_cast_fp16 = gelu(mode = input_1_mode_0, x = var_44_cast_fp16)[name = tensor<string, []>("input_1_cast_fp16")];
            tensor<string, []> var_62_pad_type_0 = const()[name = tensor<string, []>("op_62_pad_type_0"), val = tensor<string, []>("custom")];
            tensor<int32, [2]> var_62_pad_0 = const()[name = tensor<string, []>("op_62_pad_0"), val = tensor<int32, [2]>([1, 1])];
            tensor<int32, [1]> var_62_strides_0 = const()[name = tensor<string, []>("op_62_strides_0"), val = tensor<int32, [1]>([2])];
            tensor<int32, [1]> var_62_dilations_0 = const()[name = tensor<string, []>("op_62_dilations_0"), val = tensor<int32, [1]>([1])];
            tensor<int32, []> var_62_groups_0 = const()[name = tensor<string, []>("op_62_groups_0"), val = tensor<int32, []>(1)];
            tensor<fp16, [768, 768, 3]> const_2_to_fp16 = const()[name = tensor<string, []>("const_2_to_fp16"), val = tensor<fp16, [768, 768, 3]>(BLOBFILE(path = tensor<string, []>("@model_path/weights/weight.bin"), offset = tensor<uint64, []>(370368)))];
            tensor<fp16, [768]> const_3_to_fp16 = const()[name = tensor<string, []>("const_3_to_fp16"), val = tensor<fp16, [768]>(BLOBFILE(path = tensor<string, []>("@model_path/weights/weight.bin"), offset = tensor<uint64, []>(3909376)))];
            tensor<fp16, [1, 768, 1500]> var_62_cast_fp16 = conv(bias = const_3_to_fp16, dilations = var_62_dilations_0, groups = var_62_groups_0, pad = var_62_pad_0, pad_type = var_62_pad_type_0, strides = var_62_strides_0, weight = const_2_to_fp16, x = input_1_cast_fp16)[name = tensor<string, []>("op_62_cast_fp16")];
            tensor<string, []> x_3_mode_0 = const()[name = tensor<string, []>("x_3_mode_0"), val = tensor<string, []>("EXACT")];
            tensor<fp16, [1, 768, 1500]> x_3_cast_fp16 = gelu(mode = x_3_mode_0, x = var_62_cast_fp16)[name = tensor<string, []>("x_3_cast_fp16")];
            tensor<fp16, [768, 1500]> var_67_to_fp16 = const()[name = tensor<string, []>("op_67_to_fp16"), val = tensor<fp16, [768, 1500]>(BLOBFILE(path = tensor<string, []>("@model_path/weights/weight.bin"), offset = tensor<uint64, []>(3910976)))];
            tensor<fp16, [1, 768, 1500]> var_69_cast_fp16 = add(x = x_3_cast_fp16, y = var_67_to_fp16)[name = tensor<string, []>("op_69_cast_fp16")];
            tensor<int32, [1]> inputs_1_axes_0 = const()[name = tensor<string, []>("inputs_1_axes_0"), val = tensor<int32, [1]>([2])];
            tensor<fp16, [1, 768, 1, 1500]> inputs_1_cast_fp16 = expand_dims(axes = inputs_1_axes_0, x = var_69_cast_fp16)[name = tensor<string, []>("inputs_1_cast_fp16")];
            tensor<int32, []> var_84 = const()[name = tensor<string, []>("op_84"), val = tensor<int32, []>(1)];
            tensor<int32, [1]> input_3_axes_0 = const()[name = tensor<string, []>("input_3_axes_0"), val = tensor<int32, [1]>([1])];
            tensor<fp16, [768]> input_3_gamma_0_to_fp16 = const()[name = tensor<string, []>("input_3_gamma_0_to_fp16"), val = tensor<fp16, [768]>(BLOBFILE(path = tensor<string, []>("@model_path/weights/weight.bin"), offset = tensor<uint64, []>(6215040)))];
            tensor<fp16, [768]> input_3_beta_0_to_fp16 = const()[name = tensor<string, []>("input_3_beta_0_to_fp16"), val = tensor<fp16, [768]>(BLOBFILE(path = tensor<string, []>("@model_path/weights/weight.bin"), offset = tensor<uint64, []>(6216640)))];
            tensor<fp16, []> var_100_to_fp16 = const()[name = tensor<string, []>("op_100_to_fp16"), val = tensor<fp16, []>(0x1.5p-17)];
            tensor<fp16, [1, 768, 1, 1500]> input_3_cast_fp16 = layer_norm(axes = input_3_axes_0, beta = input_3_beta_0_to_fp16, epsilon = var_100_to_fp16, gamma = input_3_gamma_0_to_fp16, x = inputs_1_cast_fp16)[name = tensor<string, []>("input_3_cast_fp16")];
            tensor<string, []> q_1_pad_type_0 = const()[name = tensor<string, []>("q_1_pad_type_0"), val = tensor<string, []>("valid")];
            tensor<int32, [2]> q_1_strides_0 = const()[name = tensor<string, []>("q_1_strides_0"), val = tensor<int32, [2]>([1, 1])];
            tensor<int32, [4]> q_1_pad_0 = const()[name = tensor<string, []>("q_1_pad_0"), val = tensor<int32, [4]>([0, 0, 0, 0])];
            tensor<int32, [2]> q_1_dilations_0 = const()[name = tensor<string, []>("q_1_dilations_0"), val = tensor<int32, [2]>([1, 1])];
            tensor<int32, []> q_1_groups_0 = const()[name = tensor<string, []>("q_1_groups_0"), val = tensor<int32, []>(1)];
            tensor<fp16, [768, 768, 1, 1]> var_135_weight_0_to_fp16 = const()[name = tensor<string, []>("op_135_weight_0_to_fp16"), val = tensor<fp16, [768, 768, 1, 1]>(BLOBFILE(path = tensor<string, []>("@model_path/weights/weight.bin"), offset = tensor<uint64, []>(6218240)))];
            tensor<fp16, [768]> var_135_bias_0_to_fp16 = const()[name = tensor<string, []>("op_135_bias_0_to_fp16"), val = tensor<fp16, [768]>(BLOBFILE(path = tensor<string, []>("@model_path/weights/weight.bin"), offset = tensor<uint64, []>(7397952)))];
            tensor<fp16, [1, 768, 1, 1500]> var_135_cast_fp16 = conv(bias = var_135_bias_0_to_fp16, dilations = q_1_dilations_0, groups = q_1_groups_0, pad = q_1_pad_0, pad_type = q_1_pad_type_0, strides = q_1_strides_0, weight = var_135_weight_0_to_fp16, x = input_3_cast_fp16)[name = tensor<string, []>("op_135_cast_fp16")];
            tensor<string, []> k_1_pad_type_0 = const()[name = tensor<string, []>("k_1_pad_type_0"), val = tensor<string, []>("valid")];
            tensor<int32, [2]> k_1_strides_0 = const()[name = tensor<string, []>("k_1_strides_0"), val = tensor<int32, [2]>([1, 1])];
            tensor<int32, [4]> k_1_pad_0 = const()[name = tensor<string, []>("k_1_pad_0"), val = tensor<int32, [4]>([0, 0, 0, 0])];
            tensor<int32, [2]> k_1_dilations_0 = const()[name = tensor<string, []>("k_1_dilations_0"), val = tensor<int32, [2]>([1, 1])];
            tensor<int32, []> k_1_groups_0 = const()[name = tensor<string, []>("k_1_groups_0"), val = tensor<int32, []>(1)];
            tensor<fp16, [768, 768, 1, 1]> blocks_0_attn_key_weight_to_fp16 = const()[name = tensor<string, []>("blocks_0_attn_key_weight_to_fp16"), val = tensor<fp16, [768, 768, 1, 1]>(BLOBFILE(path = tensor<string, []>("@model_path/weights/weight.bin"), offset = tensor<uint64, []>(7399552)))];
            tensor<fp16, [1, 768, 1, 1500]> k_1_cast_fp16 = conv(dilations = k_1_dilations_0, groups = k_1_groups_0, pad = k_1_pad_0, pad_type = k_1_pad_type_0, strides = k_1_strides_0, weight = blocks_0_attn_key_weight_to_fp16, x = input_3_cast_fp16)[name = tensor<string, []>("k_1_cast_fp16")];
            tensor<string, []> var_133_pad_type_0 = const()[name = tensor<string, []>("op_133_pad_type_0"), val = tensor<string, []>("valid")];
            tensor<int32, [2]> var_133_strides_0 = const()[name = tensor<string, []>("op_133_strides_0"), val = tensor<int32, [2]>([1, 1])];
            tensor<int32, [4]> var_133_pad_0 = const()[name = tensor<string, []>("op_133_pad_0"), val = tensor<int32, [4]>([0, 0, 0, 0])];
            tensor<int32, [2]> var_133_dilations_0 = const()[name = tensor<string, []>("op_133_dilations_0"), val = tensor<int32, [2]>([1, 1])];
            tensor<int32, []> var_133_groups_0 = const()[name = tensor<string, []>("op_133_groups_0"), val = tensor<int32, []>(1)];
            tensor<fp16, [768, 768, 1, 1]> blocks_0_attn_value_weight_to_fp16 = const()[name = tensor<string, []>("blocks_0_attn_value_weight_to_fp16"), val = tensor<fp16, [768, 768, 1, 1]>(BLOBFILE(path = tensor<string, []>("@model_path/weights/weight.bin"), offset = tensor<uint64, []>(8579264)))];
            tensor<fp16, [768]> blocks_0_attn_value_bias_to_fp16 = const()[name = tensor<string, []>("blocks_0_attn_value_bias_to_fp16"), val = tensor<fp16, [768]>(BLOBFILE(path = tensor<string, []>("@model_path/weights/weight.bin"), offset = tensor<uint64, []>(9758976)))];
            tensor<fp16, [1, 768, 1, 1500]> var_133_cast_fp16 = conv(bias = blocks_0_attn_value_bias_to_fp16, dilations = var_133_dilations_0, groups = var_133_groups_0, pad = var_133_pad_0, pad_type = var_133_pad_type_0, strides = var_133_strides_0, weight = blocks_0_attn_value_weight_to_fp16, x = input_3_cast_fp16)[name = tensor<string, []>("op_133_cast_fp16")];
            tensor<int32, [12]> tile_0 = const()[name = tensor<string, []>("tile_0"), val = tensor<int32, [12]>([64, 64, 64, 64, 64, 64, 64, 64, 64, 64, 64, 64])];
            tensor<int32, []> var_136_axis_0 = const()[name = tensor<string, []>("op_136_axis_0"), val = tensor<int32, []>(1)];
            tensor<fp16, [1, 64, 1, 1500]> var_136_cast_fp16_0, tensor<fp16, [1, 64, 1, 1500]> var_136_cast_fp16_1, tensor<fp16, [1, 64, 1, 1500]> var_136_cast_fp16_2, tensor<fp16, [1, 64, 1, 1500]> var_136_cast_fp16_3, tensor<fp16, [1, 64, 1, 1500]> var_136_cast_fp16_4, tensor<fp16, [1, 64, 1, 1500]> var_136_cast_fp16_5, tensor<fp16, [1, 64, 1, 1500]> var_136_cast_fp16_6, tensor<fp16, [1, 64, 1, 1500]> var_136_cast_fp16_7, tensor<fp16, [1, 64, 1, 1500]> var_136_cast_fp16_8, tensor<fp16, [1, 64, 1, 1500]> var_136_cast_fp16_9, tensor<fp16, [1, 64, 1, 1500]> var_136_cast_fp16_10, tensor<fp16, [1, 64, 1, 1500]> var_136_cast_fp16_11 = split(axis = var_136_axis_0, split_sizes = tile_0, x = var_135_cast_fp16)[name = tensor<string, []>("op_136_cast_fp16")];
            tensor<int32, [4]> var_149_perm_0 = const()[name = tensor<string, []>("op_149_perm_0"), val = tensor<int32, [4]>([0, 3, 2, 1])];
            tensor<int32, [12]> tile_1 = const()[name = tensor<string, []>("tile_1"), val = tensor<int32, [12]>([64, 64, 64, 64, 64, 64, 64, 64, 64, 64, 64, 64])];
            tensor<int32, []> var_150_axis_0 = const()[name = tensor<string, []>("op_150_axis_0"), val = tensor<int32, []>(3)];
            tensor<fp16, [1, 1500, 1, 768]> var_149_cast_fp16 = transpose(perm = var_149_perm_0, x = k_1_cast_fp16)[name = tensor<string, []>("transpose_12")];
            tensor<fp16, [1, 1500, 1, 64]> var_150_cast_fp16_0, tensor<fp16, [1, 1500, 1, 64]> var_150_cast_fp16_1, tensor<fp16, [1, 1500, 1, 64]> var_150_cast_fp16_2, tensor<fp16, [1, 1500, 1, 64]> var_150_cast_fp16_3, tensor<fp16, [1, 1500, 1, 64]> var_150_cast_fp16_4, tensor<fp16, [1, 1500, 1, 64]> var_150_cast_fp16_5, tensor<fp16, [1, 1500, 1, 64]> var_150_cast_fp16_6, tensor<fp16, [1, 1500, 1, 64]> var_150_cast_fp16_7, tensor<fp16, [1, 1500, 1, 64]> var_150_cast_fp16_8, tensor<fp16, [1, 1500, 1, 64]> var_150_cast_fp16_9, tensor<fp16, [1, 1500, 1, 64]> var_150_cast_fp16_10, tensor<fp16, [1, 1500, 1, 64]> var_150_cast_fp16_11 = split(axis = var_150_axis_0, split_sizes = tile_1, x = var_149_cast_fp16)[name = tensor<string, []>("op_150_cast_fp16")];
            tensor<int32, [12]> tile_2 = const()[name = tensor<string, []>("tile_2"), val = tensor<int32, [12]>([64, 64, 64, 64, 64, 64, 64, 64, 64, 64, 64, 64])];
            tensor<int32, []> var_163_axis_0 = const()[name = tensor<string, []>("op_163_axis_0"), val = tensor<int32, []>(1)];
            tensor<fp16, [1, 64, 1, 1500]> var_163_cast_fp16_0, tensor<fp16, [1, 64, 1, 1500]> var_163_cast_fp16_1, tensor<fp16, [1, 64, 1, 1500]> var_163_cast_fp16_2, tensor<fp16, [1, 64, 1, 1500]> var_163_cast_fp16_3, tensor<fp16, [1, 64, 1, 1500]> var_163_cast_fp16_4, tensor<fp16, [1, 64, 1, 1500]> var_163_cast_fp16_5, tensor<fp16, [1, 64, 1, 1500]> var_163_cast_fp16_6, tensor<fp16, [1, 64, 1, 1500]> var_163_cast_fp16_7, tensor<fp16, [1, 64, 1, 1500]> var_163_cast_fp16_8, tensor<fp16, [1, 64, 1, 1500]> var_163_cast_fp16_9, tensor<fp16, [1, 64, 1, 1500]> var_163_cast_fp16_10, tensor<fp16, [1, 64, 1, 1500]> var_163_cast_fp16_11 = split(axis = var_163_axis_0, split_sizes = tile_2, x = var_133_cast_fp16)[name = tensor<string, []>("op_163_cast_fp16")];
            tensor<string, []> aw_1_equation_0 = const()[name = tensor<string, []>("aw_1_equation_0"), val = tensor<string, []>("bkhc,bchq->bkhq")];
            tensor<fp16, [1, 1500, 1, 1500]> aw_1_cast_fp16 = einsum(equation = aw_1_equation_0, values = (var_150_cast_fp16_0, var_136_cast_fp16_0))[name = tensor<string, []>("aw_1_cast_fp16")];
            tensor<string, []> aw_3_equation_0 = const()[name = tensor<string, []>("aw_3_equation_0"), val = tensor<string, []>("bkhc,bchq->bkhq")];
            tensor<fp16, [1, 1500, 1, 1500]> aw_3_cast_fp16 = einsum(equation = aw_3_equation_0, values = (var_150_cast_fp16_1, var_136_cast_fp16_1))[name = tensor<string, []>("aw_3_cast_fp16")];
            tensor<string, []> aw_5_equation_0 = const()[name = tensor<string, []>("aw_5_equation_0"), val = tensor<string, []>("bkhc,bchq->bkhq")];
            tensor<fp16, [1, 1500, 1, 1500]> aw_5_cast_fp16 = einsum(equation = aw_5_equation_0, values = (var_150_cast_fp16_2, var_136_cast_fp16_2))[name = tensor<string, []>("aw_5_cast_fp16")];
            tensor<string, []> aw_7_equation_0 = const()[name = tensor<string, []>("aw_7_equation_0"), val = tensor<string, []>("bkhc,bchq->bkhq")];
            tensor<fp16, [1, 1500, 1, 1500]> aw_7_cast_fp16 = einsum(equation = aw_7_equation_0, values = (var_150_cast_fp16_3, var_136_cast_fp16_3))[name = tensor<string, []>("aw_7_cast_fp16")];
            tensor<string, []> aw_9_equation_0 = const()[name = tensor<string, []>("aw_9_equation_0"), val = tensor<string, []>("bkhc,bchq->bkhq")];
            tensor<fp16, [1, 1500, 1, 1500]> aw_9_cast_fp16 = einsum(equation = aw_9_equation_0, values = (var_150_cast_fp16_4, var_136_cast_fp16_4))[name = tensor<string, []>("aw_9_cast_fp16")];
            tensor<string, []> aw_11_equation_0 = const()[name = tensor<string, []>("aw_11_equation_0"), val = tensor<string, []>("bkhc,bchq->bkhq")];
            tensor<fp16, [1, 1500, 1, 1500]> aw_11_cast_fp16 = einsum(equation = aw_11_equation_0, values = (var_150_cast_fp16_5, var_136_cast_fp16_5))[name = tensor<string, []>("aw_11_cast_fp16")];
            tensor<string, []> aw_13_equation_0 = const()[name = tensor<string, []>("aw_13_equation_0"), val = tensor<string, []>("bkhc,bchq->bkhq")];
            tensor<fp16, [1, 1500, 1, 1500]> aw_13_cast_fp16 = einsum(equation = aw_13_equation_0, values = (var_150_cast_fp16_6, var_136_cast_fp16_6))[name = tensor<string, []>("aw_13_cast_fp16")];
            tensor<string, []> aw_15_equation_0 = const()[name = tensor<string, []>("aw_15_equation_0"), val = tensor<string, []>("bkhc,bchq->bkhq")];
            tensor<fp16, [1, 1500, 1, 1500]> aw_15_cast_fp16 = einsum(equation = aw_15_equation_0, values = (var_150_cast_fp16_7, var_136_cast_fp16_7))[name = tensor<string, []>("aw_15_cast_fp16")];
            tensor<string, []> aw_17_equation_0 = const()[name = tensor<string, []>("aw_17_equation_0"), val = tensor<string, []>("bkhc,bchq->bkhq")];
            tensor<fp16, [1, 1500, 1, 1500]> aw_17_cast_fp16 = einsum(equation = aw_17_equation_0, values = (var_150_cast_fp16_8, var_136_cast_fp16_8))[name = tensor<string, []>("aw_17_cast_fp16")];
            tensor<string, []> aw_19_equation_0 = const()[name = tensor<string, []>("aw_19_equation_0"), val = tensor<string, []>("bkhc,bchq->bkhq")];
            tensor<fp16, [1, 1500, 1, 1500]> aw_19_cast_fp16 = einsum(equation = aw_19_equation_0, values = (var_150_cast_fp16_9, var_136_cast_fp16_9))[name = tensor<string, []>("aw_19_cast_fp16")];
            tensor<string, []> aw_21_equation_0 = const()[name = tensor<string, []>("aw_21_equation_0"), val = tensor<string, []>("bkhc,bchq->bkhq")];
            tensor<fp16, [1, 1500, 1, 1500]> aw_21_cast_fp16 = einsum(equation = aw_21_equation_0, values = (var_150_cast_fp16_10, var_136_cast_fp16_10))[name = tensor<string, []>("aw_21_cast_fp16")];
            tensor<string, []> aw_23_equation_0 = const()[name = tensor<string, []>("aw_23_equation_0"), val = tensor<string, []>("bkhc,bchq->bkhq")];
            tensor<fp16, [1, 1500, 1, 1500]> aw_23_cast_fp16 = einsum(equation = aw_23_equation_0, values = (var_150_cast_fp16_11, var_136_cast_fp16_11))[name = tensor<string, []>("aw_23_cast_fp16")];
            tensor<fp16, [1, 1500, 1, 1500]> var_200_cast_fp16 = softmax(axis = var_84, x = aw_1_cast_fp16)[name = tensor<string, []>("op_200_cast_fp16")];
            tensor<fp16, [1, 1500, 1, 1500]> var_201_cast_fp16 = softmax(axis = var_84, x = aw_3_cast_fp16)[name = tensor<string, []>("op_201_cast_fp16")];
            tensor<fp16, [1, 1500, 1, 1500]> var_202_cast_fp16 = softmax(axis = var_84, x = aw_5_cast_fp16)[name = tensor<string, []>("op_202_cast_fp16")];
            tensor<fp16, [1, 1500, 1, 1500]> var_203_cast_fp16 = softmax(axis = var_84, x = aw_7_cast_fp16)[name = tensor<string, []>("op_203_cast_fp16")];
            tensor<fp16, [1, 1500, 1, 1500]> var_204_cast_fp16 = softmax(axis = var_84, x = aw_9_cast_fp16)[name = tensor<string, []>("op_204_cast_fp16")];
            tensor<fp16, [1, 1500, 1, 1500]> var_205_cast_fp16 = softmax(axis = var_84, x = aw_11_cast_fp16)[name = tensor<string, []>("op_205_cast_fp16")];
            tensor<fp16, [1, 1500, 1, 1500]> var_206_cast_fp16 = softmax(axis = var_84, x = aw_13_cast_fp16)[name = tensor<string, []>("op_206_cast_fp16")];
            tensor<fp16, [1, 1500, 1, 1500]> var_207_cast_fp16 = softmax(axis = var_84, x = aw_15_cast_fp16)[name = tensor<string, []>("op_207_cast_fp16")];
            tensor<fp16, [1, 1500, 1, 1500]> var_208_cast_fp16 = softmax(axis = var_84, x = aw_17_cast_fp16)[name = tensor<string, []>("op_208_cast_fp16")];
            tensor<fp16, [1, 1500, 1, 1500]> var_209_cast_fp16 = softmax(axis = var_84, x = aw_19_cast_fp16)[name = tensor<string, []>("op_209_cast_fp16")];
            tensor<fp16, [1, 1500, 1, 1500]> var_210_cast_fp16 = softmax(axis = var_84, x = aw_21_cast_fp16)[name = tensor<string, []>("op_210_cast_fp16")];
            tensor<fp16, [1, 1500, 1, 1500]> var_211_cast_fp16 = softmax(axis = var_84, x = aw_23_cast_fp16)[name = tensor<string, []>("op_211_cast_fp16")];
            tensor<string, []> var_213_equation_0 = const()[name = tensor<string, []>("op_213_equation_0"), val = tensor<string, []>("bchk,bkhq->bchq")];
            tensor<fp16, [1, 64, 1, 1500]> var_213_cast_fp16 = einsum(equation = var_213_equation_0, values = (var_163_cast_fp16_0, var_200_cast_fp16))[name = tensor<string, []>("op_213_cast_fp16")];
            tensor<string, []> var_215_equation_0 = const()[name = tensor<string, []>("op_215_equation_0"), val = tensor<string, []>("bchk,bkhq->bchq")];
            tensor<fp16, [1, 64, 1, 1500]> var_215_cast_fp16 = einsum(equation = var_215_equation_0, values = (var_163_cast_fp16_1, var_201_cast_fp16))[name = tensor<string, []>("op_215_cast_fp16")];
            tensor<string, []> var_217_equation_0 = const()[name = tensor<string, []>("op_217_equation_0"), val = tensor<string, []>("bchk,bkhq->bchq")];
            tensor<fp16, [1, 64, 1, 1500]> var_217_cast_fp16 = einsum(equation = var_217_equation_0, values = (var_163_cast_fp16_2, var_202_cast_fp16))[name = tensor<string, []>("op_217_cast_fp16")];
            tensor<string, []> var_219_equation_0 = const()[name = tensor<string, []>("op_219_equation_0"), val = tensor<string, []>("bchk,bkhq->bchq")];
            tensor<fp16, [1, 64, 1, 1500]> var_219_cast_fp16 = einsum(equation = var_219_equation_0, values = (var_163_cast_fp16_3, var_203_cast_fp16))[name = tensor<string, []>("op_219_cast_fp16")];
            tensor<string, []> var_221_equation_0 = const()[name = tensor<string, []>("op_221_equation_0"), val = tensor<string, []>("bchk,bkhq->bchq")];
            tensor<fp16, [1, 64, 1, 1500]> var_221_cast_fp16 = einsum(equation = var_221_equation_0, values = (var_163_cast_fp16_4, var_204_cast_fp16))[name = tensor<string, []>("op_221_cast_fp16")];
            tensor<string, []> var_223_equation_0 = const()[name = tensor<string, []>("op_223_equation_0"), val = tensor<string, []>("bchk,bkhq->bchq")];
            tensor<fp16, [1, 64, 1, 1500]> var_223_cast_fp16 = einsum(equation = var_223_equation_0, values = (var_163_cast_fp16_5, var_205_cast_fp16))[name = tensor<string, []>("op_223_cast_fp16")];
            tensor<string, []> var_225_equation_0 = const()[name = tensor<string, []>("op_225_equation_0"), val = tensor<string, []>("bchk,bkhq->bchq")];
            tensor<fp16, [1, 64, 1, 1500]> var_225_cast_fp16 = einsum(equation = var_225_equation_0, values = (var_163_cast_fp16_6, var_206_cast_fp16))[name = tensor<string, []>("op_225_cast_fp16")];
            tensor<string, []> var_227_equation_0 = const()[name = tensor<string, []>("op_227_equation_0"), val = tensor<string, []>("bchk,bkhq->bchq")];
            tensor<fp16, [1, 64, 1, 1500]> var_227_cast_fp16 = einsum(equation = var_227_equation_0, values = (var_163_cast_fp16_7, var_207_cast_fp16))[name = tensor<string, []>("op_227_cast_fp16")];
            tensor<string, []> var_229_equation_0 = const()[name = tensor<string, []>("op_229_equation_0"), val = tensor<string, []>("bchk,bkhq->bchq")];
            tensor<fp16, [1, 64, 1, 1500]> var_229_cast_fp16 = einsum(equation = var_229_equation_0, values = (var_163_cast_fp16_8, var_208_cast_fp16))[name = tensor<string, []>("op_229_cast_fp16")];
            tensor<string, []> var_231_equation_0 = const()[name = tensor<string, []>("op_231_equation_0"), val = tensor<string, []>("bchk,bkhq->bchq")];
            tensor<fp16, [1, 64, 1, 1500]> var_231_cast_fp16 = einsum(equation = var_231_equation_0, values = (var_163_cast_fp16_9, var_209_cast_fp16))[name = tensor<string, []>("op_231_cast_fp16")];
            tensor<string, []> var_233_equation_0 = const()[name = tensor<string, []>("op_233_equation_0"), val = tensor<string, []>("bchk,bkhq->bchq")];
            tensor<fp16, [1, 64, 1, 1500]> var_233_cast_fp16 = einsum(equation = var_233_equation_0, values = (var_163_cast_fp16_10, var_210_cast_fp16))[name = tensor<string, []>("op_233_cast_fp16")];
            tensor<string, []> var_235_equation_0 = const()[name = tensor<string, []>("op_235_equation_0"), val = tensor<string, []>("bchk,bkhq->bchq")];
            tensor<fp16, [1, 64, 1, 1500]> var_235_cast_fp16 = einsum(equation = var_235_equation_0, values = (var_163_cast_fp16_11, var_211_cast_fp16))[name = tensor<string, []>("op_235_cast_fp16")];
            tensor<bool, []> input_5_interleave_0 = const()[name = tensor<string, []>("input_5_interleave_0"), val = tensor<bool, []>(false)];
            tensor<fp16, [1, 768, 1, 1500]> input_5_cast_fp16 = concat(axis = var_84, interleave = input_5_interleave_0, values = (var_213_cast_fp16, var_215_cast_fp16, var_217_cast_fp16, var_219_cast_fp16, var_221_cast_fp16, var_223_cast_fp16, var_225_cast_fp16, var_227_cast_fp16, var_229_cast_fp16, var_231_cast_fp16, var_233_cast_fp16, var_235_cast_fp16))[name = tensor<string, []>("input_5_cast_fp16")];
            tensor<string, []> var_244_pad_type_0 = const()[name = tensor<string, []>("op_244_pad_type_0"), val = tensor<string, []>("valid")];
            tensor<int32, [2]> var_244_strides_0 = const()[name = tensor<string, []>("op_244_strides_0"), val = tensor<int32, [2]>([1, 1])];
            tensor<int32, [4]> var_244_pad_0 = const()[name = tensor<string, []>("op_244_pad_0"), val = tensor<int32, [4]>([0, 0, 0, 0])];
            tensor<int32, [2]> var_244_dilations_0 = const()[name = tensor<string, []>("op_244_dilations_0"), val = tensor<int32, [2]>([1, 1])];
            tensor<int32, []> var_244_groups_0 = const()[name = tensor<string, []>("op_244_groups_0"), val = tensor<int32, []>(1)];
            tensor<fp16, [768, 768, 1, 1]> blocks_0_attn_out_weight_to_fp16 = const()[name = tensor<string, []>("blocks_0_attn_out_weight_to_fp16"), val = tensor<fp16, [768, 768, 1, 1]>(BLOBFILE(path = tensor<string, []>("@model_path/weights/weight.bin"), offset = tensor<uint64, []>(9760576)))];
            tensor<fp16, [768]> blocks_0_attn_out_bias_to_fp16 = const()[name = tensor<string, []>("blocks_0_attn_out_bias_to_fp16"), val = tensor<fp16, [768]>(BLOBFILE(path = tensor<string, []>("@model_path/weights/weight.bin"), offset = tensor<uint64, []>(10940288)))];
            tensor<fp16, [1, 768, 1, 1500]> var_244_cast_fp16 = conv(bias = blocks_0_attn_out_bias_to_fp16, dilations = var_244_dilations_0, groups = var_244_groups_0, pad = var_244_pad_0, pad_type = var_244_pad_type_0, strides = var_244_strides_0, weight = blocks_0_attn_out_weight_to_fp16, x = input_5_cast_fp16)[name = tensor<string, []>("op_244_cast_fp16")];
            tensor<fp16, [1, 768, 1, 1500]> inputs_3_cast_fp16 = add(x = inputs_1_cast_fp16, y = var_244_cast_fp16)[name = tensor<string, []>("inputs_3_cast_fp16")];
            tensor<int32, [1]> input_7_axes_0 = const()[name = tensor<string, []>("input_7_axes_0"), val = tensor<int32, [1]>([1])];
            tensor<fp16, [768]> input_7_gamma_0_to_fp16 = const()[name = tensor<string, []>("input_7_gamma_0_to_fp16"), val = tensor<fp16, [768]>(BLOBFILE(path = tensor<string, []>("@model_path/weights/weight.bin"), offset = tensor<uint64, []>(10941888)))];
            tensor<fp16, [768]> input_7_beta_0_to_fp16 = const()[name = tensor<string, []>("input_7_beta_0_to_fp16"), val = tensor<fp16, [768]>(BLOBFILE(path = tensor<string, []>("@model_path/weights/weight.bin"), offset = tensor<uint64, []>(10943488)))];
            tensor<fp16, []> var_254_to_fp16 = const()[name = tensor<string, []>("op_254_to_fp16"), val = tensor<fp16, []>(0x1.5p-17)];
            tensor<fp16, [1, 768, 1, 1500]> input_7_cast_fp16 = layer_norm(axes = input_7_axes_0, beta = input_7_beta_0_to_fp16, epsilon = var_254_to_fp16, gamma = input_7_gamma_0_to_fp16, x = inputs_3_cast_fp16)[name = tensor<string, []>("input_7_cast_fp16")];
            tensor<string, []> input_9_pad_type_0 = const()[name = tensor<string, []>("input_9_pad_type_0"), val = tensor<string, []>("valid")];
            tensor<int32, [2]> input_9_strides_0 = const()[name = tensor<string, []>("input_9_strides_0"), val = tensor<int32, [2]>([1, 1])];
            tensor<int32, [4]> input_9_pad_0 = const()[name = tensor<string, []>("input_9_pad_0"), val = tensor<int32, [4]>([0, 0, 0, 0])];
            tensor<int32, [2]> input_9_dilations_0 = const()[name = tensor<string, []>("input_9_dilations_0"), val = tensor<int32, [2]>([1, 1])];
            tensor<int32, []> input_9_groups_0 = const()[name = tensor<string, []>("input_9_groups_0"), val = tensor<int32, []>(1)];
            tensor<fp16, [3072, 768, 1, 1]> blocks_0_mlp_0_weight_to_fp16 = const()[name = tensor<string, []>("blocks_0_mlp_0_weight_to_fp16"), val = tensor<fp16, [3072, 768, 1, 1]>(BLOBFILE(path = tensor<string, []>("@model_path/weights/weight.bin"), offset = tensor<uint64, []>(10945088)))];
            tensor<fp16, [3072]> blocks_0_mlp_0_bias_to_fp16 = const()[name = tensor<string, []>("blocks_0_mlp_0_bias_to_fp16"), val = tensor<fp16, [3072]>(BLOBFILE(path = tensor<string, []>("@model_path/weights/weight.bin"), offset = tensor<uint64, []>(15663744)))];
            tensor<fp16, [1, 3072, 1, 1500]> input_9_cast_fp16 = conv(bias = blocks_0_mlp_0_bias_to_fp16, dilations = input_9_dilations_0, groups = input_9_groups_0, pad = input_9_pad_0, pad_type = input_9_pad_type_0, strides = input_9_strides_0, weight = blocks_0_mlp_0_weight_to_fp16, x = input_7_cast_fp16)[name = tensor<string, []>("input_9_cast_fp16")];
            tensor<string, []> input_11_mode_0 = const()[name = tensor<string, []>("input_11_mode_0"), val = tensor<string, []>("EXACT")];
            tensor<fp16, [1, 3072, 1, 1500]> input_11_cast_fp16 = gelu(mode = input_11_mode_0, x = input_9_cast_fp16)[name = tensor<string, []>("input_11_cast_fp16")];
            tensor<string, []> var_280_pad_type_0 = const()[name = tensor<string, []>("op_280_pad_type_0"), val = tensor<string, []>("valid")];
            tensor<int32, [2]> var_280_strides_0 = const()[name = tensor<string, []>("op_280_strides_0"), val = tensor<int32, [2]>([1, 1])];
            tensor<int32, [4]> var_280_pad_0 = const()[name = tensor<string, []>("op_280_pad_0"), val = tensor<int32, [4]>([0, 0, 0, 0])];
            tensor<int32, [2]> var_280_dilations_0 = const()[name = tensor<string, []>("op_280_dilations_0"), val = tensor<int32, [2]>([1, 1])];
            tensor<int32, []> var_280_groups_0 = const()[name = tensor<string, []>("op_280_groups_0"), val = tensor<int32, []>(1)];
            tensor<fp16, [768, 3072, 1, 1]> blocks_0_mlp_2_weight_to_fp16 = const()[name = tensor<string, []>("blocks_0_mlp_2_weight_to_fp16"), val = tensor<fp16, [768, 3072, 1, 1]>(BLOBFILE(path = tensor<string, []>("@model_path/weights/weight.bin"), offset = tensor<uint64, []>(15669952)))];
            tensor<fp16, [768]> blocks_0_mlp_2_bias_to_fp16 = const()[name = tensor<string, []>("blocks_0_mlp_2_bias_to_fp16"), val = tensor<fp16, [768]>(BLOBFILE(path = tensor<string, []>("@model_path/weights/weight.bin"), offset = tensor<uint64, []>(20388608)))];
            tensor<fp16, [1, 768, 1, 1500]> var_280_cast_fp16 = conv(bias = blocks_0_mlp_2_bias_to_fp16, dilations = var_280_dilations_0, groups = var_280_groups_0, pad = var_280_pad_0, pad_type = var_280_pad_type_0, strides = var_280_strides_0, weight = blocks_0_mlp_2_weight_to_fp16, x = input_11_cast_fp16)[name = tensor<string, []>("op_280_cast_fp16")];
            tensor<fp16, [1, 768, 1, 1500]> inputs_5_cast_fp16 = add(x = inputs_3_cast_fp16, y = var_280_cast_fp16)[name = tensor<string, []>("inputs_5_cast_fp16")];
            tensor<int32, []> var_289 = const()[name = tensor<string, []>("op_289"), val = tensor<int32, []>(1)];
            tensor<int32, [1]> input_13_axes_0 = const()[name = tensor<string, []>("input_13_axes_0"), val = tensor<int32, [1]>([1])];
            tensor<fp16, [768]> input_13_gamma_0_to_fp16 = const()[name = tensor<string, []>("input_13_gamma_0_to_fp16"), val = tensor<fp16, [768]>(BLOBFILE(path = tensor<string, []>("@model_path/weights/weight.bin"), offset = tensor<uint64, []>(20390208)))];
            tensor<fp16, [768]> input_13_beta_0_to_fp16 = const()[name = tensor<string, []>("input_13_beta_0_to_fp16"), val = tensor<fp16, [768]>(BLOBFILE(path = tensor<string, []>("@model_path/weights/weight.bin"), offset = tensor<uint64, []>(20391808)))];
            tensor<fp16, []> var_305_to_fp16 = const()[name = tensor<string, []>("op_305_to_fp16"), val = tensor<fp16, []>(0x1.5p-17)];
            tensor<fp16, [1, 768, 1, 1500]> input_13_cast_fp16 = layer_norm(axes = input_13_axes_0, beta = input_13_beta_0_to_fp16, epsilon = var_305_to_fp16, gamma = input_13_gamma_0_to_fp16, x = inputs_5_cast_fp16)[name = tensor<string, []>("input_13_cast_fp16")];
            tensor<string, []> q_3_pad_type_0 = const()[name = tensor<string, []>("q_3_pad_type_0"), val = tensor<string, []>("valid")];
            tensor<int32, [2]> q_3_strides_0 = const()[name = tensor<string, []>("q_3_strides_0"), val = tensor<int32, [2]>([1, 1])];
            tensor<int32, [4]> q_3_pad_0 = const()[name = tensor<string, []>("q_3_pad_0"), val = tensor<int32, [4]>([0, 0, 0, 0])];
            tensor<int32, [2]> q_3_dilations_0 = const()[name = tensor<string, []>("q_3_dilations_0"), val = tensor<int32, [2]>([1, 1])];
            tensor<int32, []> q_3_groups_0 = const()[name = tensor<string, []>("q_3_groups_0"), val = tensor<int32, []>(1)];
            tensor<fp16, [768, 768, 1, 1]> var_340_weight_0_to_fp16 = const()[name = tensor<string, []>("op_340_weight_0_to_fp16"), val = tensor<fp16, [768, 768, 1, 1]>(BLOBFILE(path = tensor<string, []>("@model_path/weights/weight.bin"), offset = tensor<uint64, []>(20393408)))];
            tensor<fp16, [768]> var_340_bias_0_to_fp16 = const()[name = tensor<string, []>("op_340_bias_0_to_fp16"), val = tensor<fp16, [768]>(BLOBFILE(path = tensor<string, []>("@model_path/weights/weight.bin"), offset = tensor<uint64, []>(21573120)))];
            tensor<fp16, [1, 768, 1, 1500]> var_340_cast_fp16 = conv(bias = var_340_bias_0_to_fp16, dilations = q_3_dilations_0, groups = q_3_groups_0, pad = q_3_pad_0, pad_type = q_3_pad_type_0, strides = q_3_strides_0, weight = var_340_weight_0_to_fp16, x = input_13_cast_fp16)[name = tensor<string, []>("op_340_cast_fp16")];
            tensor<string, []> k_3_pad_type_0 = const()[name = tensor<string, []>("k_3_pad_type_0"), val = tensor<string, []>("valid")];
            tensor<int32, [2]> k_3_strides_0 = const()[name = tensor<string, []>("k_3_strides_0"), val = tensor<int32, [2]>([1, 1])];
            tensor<int32, [4]> k_3_pad_0 = const()[name = tensor<string, []>("k_3_pad_0"), val = tensor<int32, [4]>([0, 0, 0, 0])];
            tensor<int32, [2]> k_3_dilations_0 = const()[name = tensor<string, []>("k_3_dilations_0"), val = tensor<int32, [2]>([1, 1])];
            tensor<int32, []> k_3_groups_0 = const()[name = tensor<string, []>("k_3_groups_0"), val = tensor<int32, []>(1)];
            tensor<fp16, [768, 768, 1, 1]> blocks_1_attn_key_weight_to_fp16 = const()[name = tensor<string, []>("blocks_1_attn_key_weight_to_fp16"), val = tensor<fp16, [768, 768, 1, 1]>(BLOBFILE(path = tensor<string, []>("@model_path/weights/weight.bin"), offset = tensor<uint64, []>(21574720)))];
            tensor<fp16, [1, 768, 1, 1500]> k_3_cast_fp16 = conv(dilations = k_3_dilations_0, groups = k_3_groups_0, pad = k_3_pad_0, pad_type = k_3_pad_type_0, strides = k_3_strides_0, weight = blocks_1_attn_key_weight_to_fp16, x = input_13_cast_fp16)[name = tensor<string, []>("k_3_cast_fp16")];
            tensor<string, []> var_338_pad_type_0 = const()[name = tensor<string, []>("op_338_pad_type_0"), val = tensor<string, []>("valid")];
            tensor<int32, [2]> var_338_strides_0 = const()[name = tensor<string, []>("op_338_strides_0"), val = tensor<int32, [2]>([1, 1])];
            tensor<int32, [4]> var_338_pad_0 = const()[name = tensor<string, []>("op_338_pad_0"), val = tensor<int32, [4]>([0, 0, 0, 0])];
            tensor<int32, [2]> var_338_dilations_0 = const()[name = tensor<string, []>("op_338_dilations_0"), val = tensor<int32, [2]>([1, 1])];
            tensor<int32, []> var_338_groups_0 = const()[name = tensor<string, []>("op_338_groups_0"), val = tensor<int32, []>(1)];
            tensor<fp16, [768, 768, 1, 1]> blocks_1_attn_value_weight_to_fp16 = const()[name = tensor<string, []>("blocks_1_attn_value_weight_to_fp16"), val = tensor<fp16, [768, 768, 1, 1]>(BLOBFILE(path = tensor<string, []>("@model_path/weights/weight.bin"), offset = tensor<uint64, []>(22754432)))];
            tensor<fp16, [768]> blocks_1_attn_value_bias_to_fp16 = const()[name = tensor<string, []>("blocks_1_attn_value_bias_to_fp16"), val = tensor<fp16, [768]>(BLOBFILE(path = tensor<string, []>("@model_path/weights/weight.bin"), offset = tensor<uint64, []>(23934144)))];
            tensor<fp16, [1, 768, 1, 1500]> var_338_cast_fp16 = conv(bias = blocks_1_attn_value_bias_to_fp16, dilations = var_338_dilations_0, groups = var_338_groups_0, pad = var_338_pad_0, pad_type = var_338_pad_type_0, strides = var_338_strides_0, weight = blocks_1_attn_value_weight_to_fp16, x = input_13_cast_fp16)[name = tensor<string, []>("op_338_cast_fp16")];
            tensor<int32, [12]> tile_3 = const()[name = tensor<string, []>("tile_3"), val = tensor<int32, [12]>([64, 64, 64, 64, 64, 64, 64, 64, 64, 64, 64, 64])];
            tensor<int32, []> var_341_axis_0 = const()[name = tensor<string, []>("op_341_axis_0"), val = tensor<int32, []>(1)];
            tensor<fp16, [1, 64, 1, 1500]> var_341_cast_fp16_0, tensor<fp16, [1, 64, 1, 1500]> var_341_cast_fp16_1, tensor<fp16, [1, 64, 1, 1500]> var_341_cast_fp16_2, tensor<fp16, [1, 64, 1, 1500]> var_341_cast_fp16_3, tensor<fp16, [1, 64, 1, 1500]> var_341_cast_fp16_4, tensor<fp16, [1, 64, 1, 1500]> var_341_cast_fp16_5, tensor<fp16, [1, 64, 1, 1500]> var_341_cast_fp16_6, tensor<fp16, [1, 64, 1, 1500]> var_341_cast_fp16_7, tensor<fp16, [1, 64, 1, 1500]> var_341_cast_fp16_8, tensor<fp16, [1, 64, 1, 1500]> var_341_cast_fp16_9, tensor<fp16, [1, 64, 1, 1500]> var_341_cast_fp16_10, tensor<fp16, [1, 64, 1, 1500]> var_341_cast_fp16_11 = split(axis = var_341_axis_0, split_sizes = tile_3, x = var_340_cast_fp16)[name = tensor<string, []>("op_341_cast_fp16")];
            tensor<int32, [4]> var_354_perm_0 = const()[name = tensor<string, []>("op_354_perm_0"), val = tensor<int32, [4]>([0, 3, 2, 1])];
            tensor<int32, [12]> tile_4 = const()[name = tensor<string, []>("tile_4"), val = tensor<int32, [12]>([64, 64, 64, 64, 64, 64, 64, 64, 64, 64, 64, 64])];
            tensor<int32, []> var_355_axis_0 = const()[name = tensor<string, []>("op_355_axis_0"), val = tensor<int32, []>(3)];
            tensor<fp16, [1, 1500, 1, 768]> var_354_cast_fp16 = transpose(perm = var_354_perm_0, x = k_3_cast_fp16)[name = tensor<string, []>("transpose_11")];
            tensor<fp16, [1, 1500, 1, 64]> var_355_cast_fp16_0, tensor<fp16, [1, 1500, 1, 64]> var_355_cast_fp16_1, tensor<fp16, [1, 1500, 1, 64]> var_355_cast_fp16_2, tensor<fp16, [1, 1500, 1, 64]> var_355_cast_fp16_3, tensor<fp16, [1, 1500, 1, 64]> var_355_cast_fp16_4, tensor<fp16, [1, 1500, 1, 64]> var_355_cast_fp16_5, tensor<fp16, [1, 1500, 1, 64]> var_355_cast_fp16_6, tensor<fp16, [1, 1500, 1, 64]> var_355_cast_fp16_7, tensor<fp16, [1, 1500, 1, 64]> var_355_cast_fp16_8, tensor<fp16, [1, 1500, 1, 64]> var_355_cast_fp16_9, tensor<fp16, [1, 1500, 1, 64]> var_355_cast_fp16_10, tensor<fp16, [1, 1500, 1, 64]> var_355_cast_fp16_11 = split(axis = var_355_axis_0, split_sizes = tile_4, x = var_354_cast_fp16)[name = tensor<string, []>("op_355_cast_fp16")];
            tensor<int32, [12]> tile_5 = const()[name = tensor<string, []>("tile_5"), val = tensor<int32, [12]>([64, 64, 64, 64, 64, 64, 64, 64, 64, 64, 64, 64])];
            tensor<int32, []> var_368_axis_0 = const()[name = tensor<string, []>("op_368_axis_0"), val = tensor<int32, []>(1)];
            tensor<fp16, [1, 64, 1, 1500]> var_368_cast_fp16_0, tensor<fp16, [1, 64, 1, 1500]> var_368_cast_fp16_1, tensor<fp16, [1, 64, 1, 1500]> var_368_cast_fp16_2, tensor<fp16, [1, 64, 1, 1500]> var_368_cast_fp16_3, tensor<fp16, [1, 64, 1, 1500]> var_368_cast_fp16_4, tensor<fp16, [1, 64, 1, 1500]> var_368_cast_fp16_5, tensor<fp16, [1, 64, 1, 1500]> var_368_cast_fp16_6, tensor<fp16, [1, 64, 1, 1500]> var_368_cast_fp16_7, tensor<fp16, [1, 64, 1, 1500]> var_368_cast_fp16_8, tensor<fp16, [1, 64, 1, 1500]> var_368_cast_fp16_9, tensor<fp16, [1, 64, 1, 1500]> var_368_cast_fp16_10, tensor<fp16, [1, 64, 1, 1500]> var_368_cast_fp16_11 = split(axis = var_368_axis_0, split_sizes = tile_5, x = var_338_cast_fp16)[name = tensor<string, []>("op_368_cast_fp16")];
            tensor<string, []> aw_25_equation_0 = const()[name = tensor<string, []>("aw_25_equation_0"), val = tensor<string, []>("bkhc,bchq->bkhq")];
            tensor<fp16, [1, 1500, 1, 1500]> aw_25_cast_fp16 = einsum(equation = aw_25_equation_0, values = (var_355_cast_fp16_0, var_341_cast_fp16_0))[name = tensor<string, []>("aw_25_cast_fp16")];
            tensor<string, []> aw_27_equation_0 = const()[name = tensor<string, []>("aw_27_equation_0"), val = tensor<string, []>("bkhc,bchq->bkhq")];
            tensor<fp16, [1, 1500, 1, 1500]> aw_27_cast_fp16 = einsum(equation = aw_27_equation_0, values = (var_355_cast_fp16_1, var_341_cast_fp16_1))[name = tensor<string, []>("aw_27_cast_fp16")];
            tensor<string, []> aw_29_equation_0 = const()[name = tensor<string, []>("aw_29_equation_0"), val = tensor<string, []>("bkhc,bchq->bkhq")];
            tensor<fp16, [1, 1500, 1, 1500]> aw_29_cast_fp16 = einsum(equation = aw_29_equation_0, values = (var_355_cast_fp16_2, var_341_cast_fp16_2))[name = tensor<string, []>("aw_29_cast_fp16")];
            tensor<string, []> aw_31_equation_0 = const()[name = tensor<string, []>("aw_31_equation_0"), val = tensor<string, []>("bkhc,bchq->bkhq")];
            tensor<fp16, [1, 1500, 1, 1500]> aw_31_cast_fp16 = einsum(equation = aw_31_equation_0, values = (var_355_cast_fp16_3, var_341_cast_fp16_3))[name = tensor<string, []>("aw_31_cast_fp16")];
            tensor<string, []> aw_33_equation_0 = const()[name = tensor<string, []>("aw_33_equation_0"), val = tensor<string, []>("bkhc,bchq->bkhq")];
            tensor<fp16, [1, 1500, 1, 1500]> aw_33_cast_fp16 = einsum(equation = aw_33_equation_0, values = (var_355_cast_fp16_4, var_341_cast_fp16_4))[name = tensor<string, []>("aw_33_cast_fp16")];
            tensor<string, []> aw_35_equation_0 = const()[name = tensor<string, []>("aw_35_equation_0"), val = tensor<string, []>("bkhc,bchq->bkhq")];
            tensor<fp16, [1, 1500, 1, 1500]> aw_35_cast_fp16 = einsum(equation = aw_35_equation_0, values = (var_355_cast_fp16_5, var_341_cast_fp16_5))[name = tensor<string, []>("aw_35_cast_fp16")];
            tensor<string, []> aw_37_equation_0 = const()[name = tensor<string, []>("aw_37_equation_0"), val = tensor<string, []>("bkhc,bchq->bkhq")];
            tensor<fp16, [1, 1500, 1, 1500]> aw_37_cast_fp16 = einsum(equation = aw_37_equation_0, values = (var_355_cast_fp16_6, var_341_cast_fp16_6))[name = tensor<string, []>("aw_37_cast_fp16")];
            tensor<string, []> aw_39_equation_0 = const()[name = tensor<string, []>("aw_39_equation_0"), val = tensor<string, []>("bkhc,bchq->bkhq")];
            tensor<fp16, [1, 1500, 1, 1500]> aw_39_cast_fp16 = einsum(equation = aw_39_equation_0, values = (var_355_cast_fp16_7, var_341_cast_fp16_7))[name = tensor<string, []>("aw_39_cast_fp16")];
            tensor<string, []> aw_41_equation_0 = const()[name = tensor<string, []>("aw_41_equation_0"), val = tensor<string, []>("bkhc,bchq->bkhq")];
            tensor<fp16, [1, 1500, 1, 1500]> aw_41_cast_fp16 = einsum(equation = aw_41_equation_0, values = (var_355_cast_fp16_8, var_341_cast_fp16_8))[name = tensor<string, []>("aw_41_cast_fp16")];
            tensor<string, []> aw_43_equation_0 = const()[name = tensor<string, []>("aw_43_equation_0"), val = tensor<string, []>("bkhc,bchq->bkhq")];
            tensor<fp16, [1, 1500, 1, 1500]> aw_43_cast_fp16 = einsum(equation = aw_43_equation_0, values = (var_355_cast_fp16_9, var_341_cast_fp16_9))[name = tensor<string, []>("aw_43_cast_fp16")];
            tensor<string, []> aw_45_equation_0 = const()[name = tensor<string, []>("aw_45_equation_0"), val = tensor<string, []>("bkhc,bchq->bkhq")];
            tensor<fp16, [1, 1500, 1, 1500]> aw_45_cast_fp16 = einsum(equation = aw_45_equation_0, values = (var_355_cast_fp16_10, var_341_cast_fp16_10))[name = tensor<string, []>("aw_45_cast_fp16")];
            tensor<string, []> aw_47_equation_0 = const()[name = tensor<string, []>("aw_47_equation_0"), val = tensor<string, []>("bkhc,bchq->bkhq")];
            tensor<fp16, [1, 1500, 1, 1500]> aw_47_cast_fp16 = einsum(equation = aw_47_equation_0, values = (var_355_cast_fp16_11, var_341_cast_fp16_11))[name = tensor<string, []>("aw_47_cast_fp16")];
            tensor<fp16, [1, 1500, 1, 1500]> var_405_cast_fp16 = softmax(axis = var_289, x = aw_25_cast_fp16)[name = tensor<string, []>("op_405_cast_fp16")];
            tensor<fp16, [1, 1500, 1, 1500]> var_406_cast_fp16 = softmax(axis = var_289, x = aw_27_cast_fp16)[name = tensor<string, []>("op_406_cast_fp16")];
            tensor<fp16, [1, 1500, 1, 1500]> var_407_cast_fp16 = softmax(axis = var_289, x = aw_29_cast_fp16)[name = tensor<string, []>("op_407_cast_fp16")];
            tensor<fp16, [1, 1500, 1, 1500]> var_408_cast_fp16 = softmax(axis = var_289, x = aw_31_cast_fp16)[name = tensor<string, []>("op_408_cast_fp16")];
            tensor<fp16, [1, 1500, 1, 1500]> var_409_cast_fp16 = softmax(axis = var_289, x = aw_33_cast_fp16)[name = tensor<string, []>("op_409_cast_fp16")];
            tensor<fp16, [1, 1500, 1, 1500]> var_410_cast_fp16 = softmax(axis = var_289, x = aw_35_cast_fp16)[name = tensor<string, []>("op_410_cast_fp16")];
            tensor<fp16, [1, 1500, 1, 1500]> var_411_cast_fp16 = softmax(axis = var_289, x = aw_37_cast_fp16)[name = tensor<string, []>("op_411_cast_fp16")];
            tensor<fp16, [1, 1500, 1, 1500]> var_412_cast_fp16 = softmax(axis = var_289, x = aw_39_cast_fp16)[name = tensor<string, []>("op_412_cast_fp16")];
            tensor<fp16, [1, 1500, 1, 1500]> var_413_cast_fp16 = softmax(axis = var_289, x = aw_41_cast_fp16)[name = tensor<string, []>("op_413_cast_fp16")];
            tensor<fp16, [1, 1500, 1, 1500]> var_414_cast_fp16 = softmax(axis = var_289, x = aw_43_cast_fp16)[name = tensor<string, []>("op_414_cast_fp16")];
            tensor<fp16, [1, 1500, 1, 1500]> var_415_cast_fp16 = softmax(axis = var_289, x = aw_45_cast_fp16)[name = tensor<string, []>("op_415_cast_fp16")];
            tensor<fp16, [1, 1500, 1, 1500]> var_416_cast_fp16 = softmax(axis = var_289, x = aw_47_cast_fp16)[name = tensor<string, []>("op_416_cast_fp16")];
            tensor<string, []> var_418_equation_0 = const()[name = tensor<string, []>("op_418_equation_0"), val = tensor<string, []>("bchk,bkhq->bchq")];
            tensor<fp16, [1, 64, 1, 1500]> var_418_cast_fp16 = einsum(equation = var_418_equation_0, values = (var_368_cast_fp16_0, var_405_cast_fp16))[name = tensor<string, []>("op_418_cast_fp16")];
            tensor<string, []> var_420_equation_0 = const()[name = tensor<string, []>("op_420_equation_0"), val = tensor<string, []>("bchk,bkhq->bchq")];
            tensor<fp16, [1, 64, 1, 1500]> var_420_cast_fp16 = einsum(equation = var_420_equation_0, values = (var_368_cast_fp16_1, var_406_cast_fp16))[name = tensor<string, []>("op_420_cast_fp16")];
            tensor<string, []> var_422_equation_0 = const()[name = tensor<string, []>("op_422_equation_0"), val = tensor<string, []>("bchk,bkhq->bchq")];
            tensor<fp16, [1, 64, 1, 1500]> var_422_cast_fp16 = einsum(equation = var_422_equation_0, values = (var_368_cast_fp16_2, var_407_cast_fp16))[name = tensor<string, []>("op_422_cast_fp16")];
            tensor<string, []> var_424_equation_0 = const()[name = tensor<string, []>("op_424_equation_0"), val = tensor<string, []>("bchk,bkhq->bchq")];
            tensor<fp16, [1, 64, 1, 1500]> var_424_cast_fp16 = einsum(equation = var_424_equation_0, values = (var_368_cast_fp16_3, var_408_cast_fp16))[name = tensor<string, []>("op_424_cast_fp16")];
            tensor<string, []> var_426_equation_0 = const()[name = tensor<string, []>("op_426_equation_0"), val = tensor<string, []>("bchk,bkhq->bchq")];
            tensor<fp16, [1, 64, 1, 1500]> var_426_cast_fp16 = einsum(equation = var_426_equation_0, values = (var_368_cast_fp16_4, var_409_cast_fp16))[name = tensor<string, []>("op_426_cast_fp16")];
            tensor<string, []> var_428_equation_0 = const()[name = tensor<string, []>("op_428_equation_0"), val = tensor<string, []>("bchk,bkhq->bchq")];
            tensor<fp16, [1, 64, 1, 1500]> var_428_cast_fp16 = einsum(equation = var_428_equation_0, values = (var_368_cast_fp16_5, var_410_cast_fp16))[name = tensor<string, []>("op_428_cast_fp16")];
            tensor<string, []> var_430_equation_0 = const()[name = tensor<string, []>("op_430_equation_0"), val = tensor<string, []>("bchk,bkhq->bchq")];
            tensor<fp16, [1, 64, 1, 1500]> var_430_cast_fp16 = einsum(equation = var_430_equation_0, values = (var_368_cast_fp16_6, var_411_cast_fp16))[name = tensor<string, []>("op_430_cast_fp16")];
            tensor<string, []> var_432_equation_0 = const()[name = tensor<string, []>("op_432_equation_0"), val = tensor<string, []>("bchk,bkhq->bchq")];
            tensor<fp16, [1, 64, 1, 1500]> var_432_cast_fp16 = einsum(equation = var_432_equation_0, values = (var_368_cast_fp16_7, var_412_cast_fp16))[name = tensor<string, []>("op_432_cast_fp16")];
            tensor<string, []> var_434_equation_0 = const()[name = tensor<string, []>("op_434_equation_0"), val = tensor<string, []>("bchk,bkhq->bchq")];
            tensor<fp16, [1, 64, 1, 1500]> var_434_cast_fp16 = einsum(equation = var_434_equation_0, values = (var_368_cast_fp16_8, var_413_cast_fp16))[name = tensor<string, []>("op_434_cast_fp16")];
            tensor<string, []> var_436_equation_0 = const()[name = tensor<string, []>("op_436_equation_0"), val = tensor<string, []>("bchk,bkhq->bchq")];
            tensor<fp16, [1, 64, 1, 1500]> var_436_cast_fp16 = einsum(equation = var_436_equation_0, values = (var_368_cast_fp16_9, var_414_cast_fp16))[name = tensor<string, []>("op_436_cast_fp16")];
            tensor<string, []> var_438_equation_0 = const()[name = tensor<string, []>("op_438_equation_0"), val = tensor<string, []>("bchk,bkhq->bchq")];
            tensor<fp16, [1, 64, 1, 1500]> var_438_cast_fp16 = einsum(equation = var_438_equation_0, values = (var_368_cast_fp16_10, var_415_cast_fp16))[name = tensor<string, []>("op_438_cast_fp16")];
            tensor<string, []> var_440_equation_0 = const()[name = tensor<string, []>("op_440_equation_0"), val = tensor<string, []>("bchk,bkhq->bchq")];
            tensor<fp16, [1, 64, 1, 1500]> var_440_cast_fp16 = einsum(equation = var_440_equation_0, values = (var_368_cast_fp16_11, var_416_cast_fp16))[name = tensor<string, []>("op_440_cast_fp16")];
            tensor<bool, []> input_15_interleave_0 = const()[name = tensor<string, []>("input_15_interleave_0"), val = tensor<bool, []>(false)];
            tensor<fp16, [1, 768, 1, 1500]> input_15_cast_fp16 = concat(axis = var_289, interleave = input_15_interleave_0, values = (var_418_cast_fp16, var_420_cast_fp16, var_422_cast_fp16, var_424_cast_fp16, var_426_cast_fp16, var_428_cast_fp16, var_430_cast_fp16, var_432_cast_fp16, var_434_cast_fp16, var_436_cast_fp16, var_438_cast_fp16, var_440_cast_fp16))[name = tensor<string, []>("input_15_cast_fp16")];
            tensor<string, []> var_449_pad_type_0 = const()[name = tensor<string, []>("op_449_pad_type_0"), val = tensor<string, []>("valid")];
            tensor<int32, [2]> var_449_strides_0 = const()[name = tensor<string, []>("op_449_strides_0"), val = tensor<int32, [2]>([1, 1])];
            tensor<int32, [4]> var_449_pad_0 = const()[name = tensor<string, []>("op_449_pad_0"), val = tensor<int32, [4]>([0, 0, 0, 0])];
            tensor<int32, [2]> var_449_dilations_0 = const()[name = tensor<string, []>("op_449_dilations_0"), val = tensor<int32, [2]>([1, 1])];
            tensor<int32, []> var_449_groups_0 = const()[name = tensor<string, []>("op_449_groups_0"), val = tensor<int32, []>(1)];
            tensor<fp16, [768, 768, 1, 1]> blocks_1_attn_out_weight_to_fp16 = const()[name = tensor<string, []>("blocks_1_attn_out_weight_to_fp16"), val = tensor<fp16, [768, 768, 1, 1]>(BLOBFILE(path = tensor<string, []>("@model_path/weights/weight.bin"), offset = tensor<uint64, []>(23935744)))];
            tensor<fp16, [768]> blocks_1_attn_out_bias_to_fp16 = const()[name = tensor<string, []>("blocks_1_attn_out_bias_to_fp16"), val = tensor<fp16, [768]>(BLOBFILE(path = tensor<string, []>("@model_path/weights/weight.bin"), offset = tensor<uint64, []>(25115456)))];
            tensor<fp16, [1, 768, 1, 1500]> var_449_cast_fp16 = conv(bias = blocks_1_attn_out_bias_to_fp16, dilations = var_449_dilations_0, groups = var_449_groups_0, pad = var_449_pad_0, pad_type = var_449_pad_type_0, strides = var_449_strides_0, weight = blocks_1_attn_out_weight_to_fp16, x = input_15_cast_fp16)[name = tensor<string, []>("op_449_cast_fp16")];
            tensor<fp16, [1, 768, 1, 1500]> inputs_7_cast_fp16 = add(x = inputs_5_cast_fp16, y = var_449_cast_fp16)[name = tensor<string, []>("inputs_7_cast_fp16")];
            tensor<int32, [1]> input_17_axes_0 = const()[name = tensor<string, []>("input_17_axes_0"), val = tensor<int32, [1]>([1])];
            tensor<fp16, [768]> input_17_gamma_0_to_fp16 = const()[name = tensor<string, []>("input_17_gamma_0_to_fp16"), val = tensor<fp16, [768]>(BLOBFILE(path = tensor<string, []>("@model_path/weights/weight.bin"), offset = tensor<uint64, []>(25117056)))];
            tensor<fp16, [768]> input_17_beta_0_to_fp16 = const()[name = tensor<string, []>("input_17_beta_0_to_fp16"), val = tensor<fp16, [768]>(BLOBFILE(path = tensor<string, []>("@model_path/weights/weight.bin"), offset = tensor<uint64, []>(25118656)))];
            tensor<fp16, []> var_459_to_fp16 = const()[name = tensor<string, []>("op_459_to_fp16"), val = tensor<fp16, []>(0x1.5p-17)];
            tensor<fp16, [1, 768, 1, 1500]> input_17_cast_fp16 = layer_norm(axes = input_17_axes_0, beta = input_17_beta_0_to_fp16, epsilon = var_459_to_fp16, gamma = input_17_gamma_0_to_fp16, x = inputs_7_cast_fp16)[name = tensor<string, []>("input_17_cast_fp16")];
            tensor<string, []> input_19_pad_type_0 = const()[name = tensor<string, []>("input_19_pad_type_0"), val = tensor<string, []>("valid")];
            tensor<int32, [2]> input_19_strides_0 = const()[name = tensor<string, []>("input_19_strides_0"), val = tensor<int32, [2]>([1, 1])];
            tensor<int32, [4]> input_19_pad_0 = const()[name = tensor<string, []>("input_19_pad_0"), val = tensor<int32, [4]>([0, 0, 0, 0])];
            tensor<int32, [2]> input_19_dilations_0 = const()[name = tensor<string, []>("input_19_dilations_0"), val = tensor<int32, [2]>([1, 1])];
            tensor<int32, []> input_19_groups_0 = const()[name = tensor<string, []>("input_19_groups_0"), val = tensor<int32, []>(1)];
            tensor<fp16, [3072, 768, 1, 1]> blocks_1_mlp_0_weight_to_fp16 = const()[name = tensor<string, []>("blocks_1_mlp_0_weight_to_fp16"), val = tensor<fp16, [3072, 768, 1, 1]>(BLOBFILE(path = tensor<string, []>("@model_path/weights/weight.bin"), offset = tensor<uint64, []>(25120256)))];
            tensor<fp16, [3072]> blocks_1_mlp_0_bias_to_fp16 = const()[name = tensor<string, []>("blocks_1_mlp_0_bias_to_fp16"), val = tensor<fp16, [3072]>(BLOBFILE(path = tensor<string, []>("@model_path/weights/weight.bin"), offset = tensor<uint64, []>(29838912)))];
            tensor<fp16, [1, 3072, 1, 1500]> input_19_cast_fp16 = conv(bias = blocks_1_mlp_0_bias_to_fp16, dilations = input_19_dilations_0, groups = input_19_groups_0, pad = input_19_pad_0, pad_type = input_19_pad_type_0, strides = input_19_strides_0, weight = blocks_1_mlp_0_weight_to_fp16, x = input_17_cast_fp16)[name = tensor<string, []>("input_19_cast_fp16")];
            tensor<string, []> input_21_mode_0 = const()[name = tensor<string, []>("input_21_mode_0"), val = tensor<string, []>("EXACT")];
            tensor<fp16, [1, 3072, 1, 1500]> input_21_cast_fp16 = gelu(mode = input_21_mode_0, x = input_19_cast_fp16)[name = tensor<string, []>("input_21_cast_fp16")];
            tensor<string, []> var_485_pad_type_0 = const()[name = tensor<string, []>("op_485_pad_type_0"), val = tensor<string, []>("valid")];
            tensor<int32, [2]> var_485_strides_0 = const()[name = tensor<string, []>("op_485_strides_0"), val = tensor<int32, [2]>([1, 1])];
            tensor<int32, [4]> var_485_pad_0 = const()[name = tensor<string, []>("op_485_pad_0"), val = tensor<int32, [4]>([0, 0, 0, 0])];
            tensor<int32, [2]> var_485_dilations_0 = const()[name = tensor<string, []>("op_485_dilations_0"), val = tensor<int32, [2]>([1, 1])];
            tensor<int32, []> var_485_groups_0 = const()[name = tensor<string, []>("op_485_groups_0"), val = tensor<int32, []>(1)];
            tensor<fp16, [768, 3072, 1, 1]> blocks_1_mlp_2_weight_to_fp16 = const()[name = tensor<string, []>("blocks_1_mlp_2_weight_to_fp16"), val = tensor<fp16, [768, 3072, 1, 1]>(BLOBFILE(path = tensor<string, []>("@model_path/weights/weight.bin"), offset = tensor<uint64, []>(29845120)))];
            tensor<fp16, [768]> blocks_1_mlp_2_bias_to_fp16 = const()[name = tensor<string, []>("blocks_1_mlp_2_bias_to_fp16"), val = tensor<fp16, [768]>(BLOBFILE(path = tensor<string, []>("@model_path/weights/weight.bin"), offset = tensor<uint64, []>(34563776)))];
            tensor<fp16, [1, 768, 1, 1500]> var_485_cast_fp16 = conv(bias = blocks_1_mlp_2_bias_to_fp16, dilations = var_485_dilations_0, groups = var_485_groups_0, pad = var_485_pad_0, pad_type = var_485_pad_type_0, strides = var_485_strides_0, weight = blocks_1_mlp_2_weight_to_fp16, x = input_21_cast_fp16)[name = tensor<string, []>("op_485_cast_fp16")];
            tensor<fp16, [1, 768, 1, 1500]> inputs_9_cast_fp16 = add(x = inputs_7_cast_fp16, y = var_485_cast_fp16)[name = tensor<string, []>("inputs_9_cast_fp16")];
            tensor<int32, []> var_494 = const()[name = tensor<string, []>("op_494"), val = tensor<int32, []>(1)];
            tensor<int32, [1]> input_23_axes_0 = const()[name = tensor<string, []>("input_23_axes_0"), val = tensor<int32, [1]>([1])];
            tensor<fp16, [768]> input_23_gamma_0_to_fp16 = const()[name = tensor<string, []>("input_23_gamma_0_to_fp16"), val = tensor<fp16, [768]>(BLOBFILE(path = tensor<string, []>("@model_path/weights/weight.bin"), offset = tensor<uint64, []>(34565376)))];
            tensor<fp16, [768]> input_23_beta_0_to_fp16 = const()[name = tensor<string, []>("input_23_beta_0_to_fp16"), val = tensor<fp16, [768]>(BLOBFILE(path = tensor<string, []>("@model_path/weights/weight.bin"), offset = tensor<uint64, []>(34566976)))];
            tensor<fp16, []> var_510_to_fp16 = const()[name = tensor<string, []>("op_510_to_fp16"), val = tensor<fp16, []>(0x1.5p-17)];
            tensor<fp16, [1, 768, 1, 1500]> input_23_cast_fp16 = layer_norm(axes = input_23_axes_0, beta = input_23_beta_0_to_fp16, epsilon = var_510_to_fp16, gamma = input_23_gamma_0_to_fp16, x = inputs_9_cast_fp16)[name = tensor<string, []>("input_23_cast_fp16")];
            tensor<string, []> q_5_pad_type_0 = const()[name = tensor<string, []>("q_5_pad_type_0"), val = tensor<string, []>("valid")];
            tensor<int32, [2]> q_5_strides_0 = const()[name = tensor<string, []>("q_5_strides_0"), val = tensor<int32, [2]>([1, 1])];
            tensor<int32, [4]> q_5_pad_0 = const()[name = tensor<string, []>("q_5_pad_0"), val = tensor<int32, [4]>([0, 0, 0, 0])];
            tensor<int32, [2]> q_5_dilations_0 = const()[name = tensor<string, []>("q_5_dilations_0"), val = tensor<int32, [2]>([1, 1])];
            tensor<int32, []> q_5_groups_0 = const()[name = tensor<string, []>("q_5_groups_0"), val = tensor<int32, []>(1)];
            tensor<fp16, [768, 768, 1, 1]> var_545_weight_0_to_fp16 = const()[name = tensor<string, []>("op_545_weight_0_to_fp16"), val = tensor<fp16, [768, 768, 1, 1]>(BLOBFILE(path = tensor<string, []>("@model_path/weights/weight.bin"), offset = tensor<uint64, []>(34568576)))];
            tensor<fp16, [768]> var_545_bias_0_to_fp16 = const()[name = tensor<string, []>("op_545_bias_0_to_fp16"), val = tensor<fp16, [768]>(BLOBFILE(path = tensor<string, []>("@model_path/weights/weight.bin"), offset = tensor<uint64, []>(35748288)))];
            tensor<fp16, [1, 768, 1, 1500]> var_545_cast_fp16 = conv(bias = var_545_bias_0_to_fp16, dilations = q_5_dilations_0, groups = q_5_groups_0, pad = q_5_pad_0, pad_type = q_5_pad_type_0, strides = q_5_strides_0, weight = var_545_weight_0_to_fp16, x = input_23_cast_fp16)[name = tensor<string, []>("op_545_cast_fp16")];
            tensor<string, []> k_5_pad_type_0 = const()[name = tensor<string, []>("k_5_pad_type_0"), val = tensor<string, []>("valid")];
            tensor<int32, [2]> k_5_strides_0 = const()[name = tensor<string, []>("k_5_strides_0"), val = tensor<int32, [2]>([1, 1])];
            tensor<int32, [4]> k_5_pad_0 = const()[name = tensor<string, []>("k_5_pad_0"), val = tensor<int32, [4]>([0, 0, 0, 0])];
            tensor<int32, [2]> k_5_dilations_0 = const()[name = tensor<string, []>("k_5_dilations_0"), val = tensor<int32, [2]>([1, 1])];
            tensor<int32, []> k_5_groups_0 = const()[name = tensor<string, []>("k_5_groups_0"), val = tensor<int32, []>(1)];
            tensor<fp16, [768, 768, 1, 1]> blocks_2_attn_key_weight_to_fp16 = const()[name = tensor<string, []>("blocks_2_attn_key_weight_to_fp16"), val = tensor<fp16, [768, 768, 1, 1]>(BLOBFILE(path = tensor<string, []>("@model_path/weights/weight.bin"), offset = tensor<uint64, []>(35749888)))];
            tensor<fp16, [1, 768, 1, 1500]> k_5_cast_fp16 = conv(dilations = k_5_dilations_0, groups = k_5_groups_0, pad = k_5_pad_0, pad_type = k_5_pad_type_0, strides = k_5_strides_0, weight = blocks_2_attn_key_weight_to_fp16, x = input_23_cast_fp16)[name = tensor<string, []>("k_5_cast_fp16")];
            tensor<string, []> var_543_pad_type_0 = const()[name = tensor<string, []>("op_543_pad_type_0"), val = tensor<string, []>("valid")];
            tensor<int32, [2]> var_543_strides_0 = const()[name = tensor<string, []>("op_543_strides_0"), val = tensor<int32, [2]>([1, 1])];
            tensor<int32, [4]> var_543_pad_0 = const()[name = tensor<string, []>("op_543_pad_0"), val = tensor<int32, [4]>([0, 0, 0, 0])];
            tensor<int32, [2]> var_543_dilations_0 = const()[name = tensor<string, []>("op_543_dilations_0"), val = tensor<int32, [2]>([1, 1])];
            tensor<int32, []> var_543_groups_0 = const()[name = tensor<string, []>("op_543_groups_0"), val = tensor<int32, []>(1)];
            tensor<fp16, [768, 768, 1, 1]> blocks_2_attn_value_weight_to_fp16 = const()[name = tensor<string, []>("blocks_2_attn_value_weight_to_fp16"), val = tensor<fp16, [768, 768, 1, 1]>(BLOBFILE(path = tensor<string, []>("@model_path/weights/weight.bin"), offset = tensor<uint64, []>(36929600)))];
            tensor<fp16, [768]> blocks_2_attn_value_bias_to_fp16 = const()[name = tensor<string, []>("blocks_2_attn_value_bias_to_fp16"), val = tensor<fp16, [768]>(BLOBFILE(path = tensor<string, []>("@model_path/weights/weight.bin"), offset = tensor<uint64, []>(38109312)))];
            tensor<fp16, [1, 768, 1, 1500]> var_543_cast_fp16 = conv(bias = blocks_2_attn_value_bias_to_fp16, dilations = var_543_dilations_0, groups = var_543_groups_0, pad = var_543_pad_0, pad_type = var_543_pad_type_0, strides = var_543_strides_0, weight = blocks_2_attn_value_weight_to_fp16, x = input_23_cast_fp16)[name = tensor<string, []>("op_543_cast_fp16")];
            tensor<int32, [12]> tile_6 = const()[name = tensor<string, []>("tile_6"), val = tensor<int32, [12]>([64, 64, 64, 64, 64, 64, 64, 64, 64, 64, 64, 64])];
            tensor<int32, []> var_546_axis_0 = const()[name = tensor<string, []>("op_546_axis_0"), val = tensor<int32, []>(1)];
            tensor<fp16, [1, 64, 1, 1500]> var_546_cast_fp16_0, tensor<fp16, [1, 64, 1, 1500]> var_546_cast_fp16_1, tensor<fp16, [1, 64, 1, 1500]> var_546_cast_fp16_2, tensor<fp16, [1, 64, 1, 1500]> var_546_cast_fp16_3, tensor<fp16, [1, 64, 1, 1500]> var_546_cast_fp16_4, tensor<fp16, [1, 64, 1, 1500]> var_546_cast_fp16_5, tensor<fp16, [1, 64, 1, 1500]> var_546_cast_fp16_6, tensor<fp16, [1, 64, 1, 1500]> var_546_cast_fp16_7, tensor<fp16, [1, 64, 1, 1500]> var_546_cast_fp16_8, tensor<fp16, [1, 64, 1, 1500]> var_546_cast_fp16_9, tensor<fp16, [1, 64, 1, 1500]> var_546_cast_fp16_10, tensor<fp16, [1, 64, 1, 1500]> var_546_cast_fp16_11 = split(axis = var_546_axis_0, split_sizes = tile_6, x = var_545_cast_fp16)[name = tensor<string, []>("op_546_cast_fp16")];
            tensor<int32, [4]> var_559_perm_0 = const()[name = tensor<string, []>("op_559_perm_0"), val = tensor<int32, [4]>([0, 3, 2, 1])];
            tensor<int32, [12]> tile_7 = const()[name = tensor<string, []>("tile_7"), val = tensor<int32, [12]>([64, 64, 64, 64, 64, 64, 64, 64, 64, 64, 64, 64])];
            tensor<int32, []> var_560_axis_0 = const()[name = tensor<string, []>("op_560_axis_0"), val = tensor<int32, []>(3)];
            tensor<fp16, [1, 1500, 1, 768]> var_559_cast_fp16 = transpose(perm = var_559_perm_0, x = k_5_cast_fp16)[name = tensor<string, []>("transpose_10")];
            tensor<fp16, [1, 1500, 1, 64]> var_560_cast_fp16_0, tensor<fp16, [1, 1500, 1, 64]> var_560_cast_fp16_1, tensor<fp16, [1, 1500, 1, 64]> var_560_cast_fp16_2, tensor<fp16, [1, 1500, 1, 64]> var_560_cast_fp16_3, tensor<fp16, [1, 1500, 1, 64]> var_560_cast_fp16_4, tensor<fp16, [1, 1500, 1, 64]> var_560_cast_fp16_5, tensor<fp16, [1, 1500, 1, 64]> var_560_cast_fp16_6, tensor<fp16, [1, 1500, 1, 64]> var_560_cast_fp16_7, tensor<fp16, [1, 1500, 1, 64]> var_560_cast_fp16_8, tensor<fp16, [1, 1500, 1, 64]> var_560_cast_fp16_9, tensor<fp16, [1, 1500, 1, 64]> var_560_cast_fp16_10, tensor<fp16, [1, 1500, 1, 64]> var_560_cast_fp16_11 = split(axis = var_560_axis_0, split_sizes = tile_7, x = var_559_cast_fp16)[name = tensor<string, []>("op_560_cast_fp16")];
            tensor<int32, [12]> tile_8 = const()[name = tensor<string, []>("tile_8"), val = tensor<int32, [12]>([64, 64, 64, 64, 64, 64, 64, 64, 64, 64, 64, 64])];
            tensor<int32, []> var_573_axis_0 = const()[name = tensor<string, []>("op_573_axis_0"), val = tensor<int32, []>(1)];
            tensor<fp16, [1, 64, 1, 1500]> var_573_cast_fp16_0, tensor<fp16, [1, 64, 1, 1500]> var_573_cast_fp16_1, tensor<fp16, [1, 64, 1, 1500]> var_573_cast_fp16_2, tensor<fp16, [1, 64, 1, 1500]> var_573_cast_fp16_3, tensor<fp16, [1, 64, 1, 1500]> var_573_cast_fp16_4, tensor<fp16, [1, 64, 1, 1500]> var_573_cast_fp16_5, tensor<fp16, [1, 64, 1, 1500]> var_573_cast_fp16_6, tensor<fp16, [1, 64, 1, 1500]> var_573_cast_fp16_7, tensor<fp16, [1, 64, 1, 1500]> var_573_cast_fp16_8, tensor<fp16, [1, 64, 1, 1500]> var_573_cast_fp16_9, tensor<fp16, [1, 64, 1, 1500]> var_573_cast_fp16_10, tensor<fp16, [1, 64, 1, 1500]> var_573_cast_fp16_11 = split(axis = var_573_axis_0, split_sizes = tile_8, x = var_543_cast_fp16)[name = tensor<string, []>("op_573_cast_fp16")];
            tensor<string, []> aw_49_equation_0 = const()[name = tensor<string, []>("aw_49_equation_0"), val = tensor<string, []>("bkhc,bchq->bkhq")];
            tensor<fp16, [1, 1500, 1, 1500]> aw_49_cast_fp16 = einsum(equation = aw_49_equation_0, values = (var_560_cast_fp16_0, var_546_cast_fp16_0))[name = tensor<string, []>("aw_49_cast_fp16")];
            tensor<string, []> aw_51_equation_0 = const()[name = tensor<string, []>("aw_51_equation_0"), val = tensor<string, []>("bkhc,bchq->bkhq")];
            tensor<fp16, [1, 1500, 1, 1500]> aw_51_cast_fp16 = einsum(equation = aw_51_equation_0, values = (var_560_cast_fp16_1, var_546_cast_fp16_1))[name = tensor<string, []>("aw_51_cast_fp16")];
            tensor<string, []> aw_53_equation_0 = const()[name = tensor<string, []>("aw_53_equation_0"), val = tensor<string, []>("bkhc,bchq->bkhq")];
            tensor<fp16, [1, 1500, 1, 1500]> aw_53_cast_fp16 = einsum(equation = aw_53_equation_0, values = (var_560_cast_fp16_2, var_546_cast_fp16_2))[name = tensor<string, []>("aw_53_cast_fp16")];
            tensor<string, []> aw_55_equation_0 = const()[name = tensor<string, []>("aw_55_equation_0"), val = tensor<string, []>("bkhc,bchq->bkhq")];
            tensor<fp16, [1, 1500, 1, 1500]> aw_55_cast_fp16 = einsum(equation = aw_55_equation_0, values = (var_560_cast_fp16_3, var_546_cast_fp16_3))[name = tensor<string, []>("aw_55_cast_fp16")];
            tensor<string, []> aw_57_equation_0 = const()[name = tensor<string, []>("aw_57_equation_0"), val = tensor<string, []>("bkhc,bchq->bkhq")];
            tensor<fp16, [1, 1500, 1, 1500]> aw_57_cast_fp16 = einsum(equation = aw_57_equation_0, values = (var_560_cast_fp16_4, var_546_cast_fp16_4))[name = tensor<string, []>("aw_57_cast_fp16")];
            tensor<string, []> aw_59_equation_0 = const()[name = tensor<string, []>("aw_59_equation_0"), val = tensor<string, []>("bkhc,bchq->bkhq")];
            tensor<fp16, [1, 1500, 1, 1500]> aw_59_cast_fp16 = einsum(equation = aw_59_equation_0, values = (var_560_cast_fp16_5, var_546_cast_fp16_5))[name = tensor<string, []>("aw_59_cast_fp16")];
            tensor<string, []> aw_61_equation_0 = const()[name = tensor<string, []>("aw_61_equation_0"), val = tensor<string, []>("bkhc,bchq->bkhq")];
            tensor<fp16, [1, 1500, 1, 1500]> aw_61_cast_fp16 = einsum(equation = aw_61_equation_0, values = (var_560_cast_fp16_6, var_546_cast_fp16_6))[name = tensor<string, []>("aw_61_cast_fp16")];
            tensor<string, []> aw_63_equation_0 = const()[name = tensor<string, []>("aw_63_equation_0"), val = tensor<string, []>("bkhc,bchq->bkhq")];
            tensor<fp16, [1, 1500, 1, 1500]> aw_63_cast_fp16 = einsum(equation = aw_63_equation_0, values = (var_560_cast_fp16_7, var_546_cast_fp16_7))[name = tensor<string, []>("aw_63_cast_fp16")];
            tensor<string, []> aw_65_equation_0 = const()[name = tensor<string, []>("aw_65_equation_0"), val = tensor<string, []>("bkhc,bchq->bkhq")];
            tensor<fp16, [1, 1500, 1, 1500]> aw_65_cast_fp16 = einsum(equation = aw_65_equation_0, values = (var_560_cast_fp16_8, var_546_cast_fp16_8))[name = tensor<string, []>("aw_65_cast_fp16")];
            tensor<string, []> aw_67_equation_0 = const()[name = tensor<string, []>("aw_67_equation_0"), val = tensor<string, []>("bkhc,bchq->bkhq")];
            tensor<fp16, [1, 1500, 1, 1500]> aw_67_cast_fp16 = einsum(equation = aw_67_equation_0, values = (var_560_cast_fp16_9, var_546_cast_fp16_9))[name = tensor<string, []>("aw_67_cast_fp16")];
            tensor<string, []> aw_69_equation_0 = const()[name = tensor<string, []>("aw_69_equation_0"), val = tensor<string, []>("bkhc,bchq->bkhq")];
            tensor<fp16, [1, 1500, 1, 1500]> aw_69_cast_fp16 = einsum(equation = aw_69_equation_0, values = (var_560_cast_fp16_10, var_546_cast_fp16_10))[name = tensor<string, []>("aw_69_cast_fp16")];
            tensor<string, []> aw_71_equation_0 = const()[name = tensor<string, []>("aw_71_equation_0"), val = tensor<string, []>("bkhc,bchq->bkhq")];
            tensor<fp16, [1, 1500, 1, 1500]> aw_71_cast_fp16 = einsum(equation = aw_71_equation_0, values = (var_560_cast_fp16_11, var_546_cast_fp16_11))[name = tensor<string, []>("aw_71_cast_fp16")];
            tensor<fp16, [1, 1500, 1, 1500]> var_610_cast_fp16 = softmax(axis = var_494, x = aw_49_cast_fp16)[name = tensor<string, []>("op_610_cast_fp16")];
            tensor<fp16, [1, 1500, 1, 1500]> var_611_cast_fp16 = softmax(axis = var_494, x = aw_51_cast_fp16)[name = tensor<string, []>("op_611_cast_fp16")];
            tensor<fp16, [1, 1500, 1, 1500]> var_612_cast_fp16 = softmax(axis = var_494, x = aw_53_cast_fp16)[name = tensor<string, []>("op_612_cast_fp16")];
            tensor<fp16, [1, 1500, 1, 1500]> var_613_cast_fp16 = softmax(axis = var_494, x = aw_55_cast_fp16)[name = tensor<string, []>("op_613_cast_fp16")];
            tensor<fp16, [1, 1500, 1, 1500]> var_614_cast_fp16 = softmax(axis = var_494, x = aw_57_cast_fp16)[name = tensor<string, []>("op_614_cast_fp16")];
            tensor<fp16, [1, 1500, 1, 1500]> var_615_cast_fp16 = softmax(axis = var_494, x = aw_59_cast_fp16)[name = tensor<string, []>("op_615_cast_fp16")];
            tensor<fp16, [1, 1500, 1, 1500]> var_616_cast_fp16 = softmax(axis = var_494, x = aw_61_cast_fp16)[name = tensor<string, []>("op_616_cast_fp16")];
            tensor<fp16, [1, 1500, 1, 1500]> var_617_cast_fp16 = softmax(axis = var_494, x = aw_63_cast_fp16)[name = tensor<string, []>("op_617_cast_fp16")];
            tensor<fp16, [1, 1500, 1, 1500]> var_618_cast_fp16 = softmax(axis = var_494, x = aw_65_cast_fp16)[name = tensor<string, []>("op_618_cast_fp16")];
            tensor<fp16, [1, 1500, 1, 1500]> var_619_cast_fp16 = softmax(axis = var_494, x = aw_67_cast_fp16)[name = tensor<string, []>("op_619_cast_fp16")];
            tensor<fp16, [1, 1500, 1, 1500]> var_620_cast_fp16 = softmax(axis = var_494, x = aw_69_cast_fp16)[name = tensor<string, []>("op_620_cast_fp16")];
            tensor<fp16, [1, 1500, 1, 1500]> var_621_cast_fp16 = softmax(axis = var_494, x = aw_71_cast_fp16)[name = tensor<string, []>("op_621_cast_fp16")];
            tensor<string, []> var_623_equation_0 = const()[name = tensor<string, []>("op_623_equation_0"), val = tensor<string, []>("bchk,bkhq->bchq")];
            tensor<fp16, [1, 64, 1, 1500]> var_623_cast_fp16 = einsum(equation = var_623_equation_0, values = (var_573_cast_fp16_0, var_610_cast_fp16))[name = tensor<string, []>("op_623_cast_fp16")];
            tensor<string, []> var_625_equation_0 = const()[name = tensor<string, []>("op_625_equation_0"), val = tensor<string, []>("bchk,bkhq->bchq")];
            tensor<fp16, [1, 64, 1, 1500]> var_625_cast_fp16 = einsum(equation = var_625_equation_0, values = (var_573_cast_fp16_1, var_611_cast_fp16))[name = tensor<string, []>("op_625_cast_fp16")];
            tensor<string, []> var_627_equation_0 = const()[name = tensor<string, []>("op_627_equation_0"), val = tensor<string, []>("bchk,bkhq->bchq")];
            tensor<fp16, [1, 64, 1, 1500]> var_627_cast_fp16 = einsum(equation = var_627_equation_0, values = (var_573_cast_fp16_2, var_612_cast_fp16))[name = tensor<string, []>("op_627_cast_fp16")];
            tensor<string, []> var_629_equation_0 = const()[name = tensor<string, []>("op_629_equation_0"), val = tensor<string, []>("bchk,bkhq->bchq")];
            tensor<fp16, [1, 64, 1, 1500]> var_629_cast_fp16 = einsum(equation = var_629_equation_0, values = (var_573_cast_fp16_3, var_613_cast_fp16))[name = tensor<string, []>("op_629_cast_fp16")];
            tensor<string, []> var_631_equation_0 = const()[name = tensor<string, []>("op_631_equation_0"), val = tensor<string, []>("bchk,bkhq->bchq")];
            tensor<fp16, [1, 64, 1, 1500]> var_631_cast_fp16 = einsum(equation = var_631_equation_0, values = (var_573_cast_fp16_4, var_614_cast_fp16))[name = tensor<string, []>("op_631_cast_fp16")];
            tensor<string, []> var_633_equation_0 = const()[name = tensor<string, []>("op_633_equation_0"), val = tensor<string, []>("bchk,bkhq->bchq")];
            tensor<fp16, [1, 64, 1, 1500]> var_633_cast_fp16 = einsum(equation = var_633_equation_0, values = (var_573_cast_fp16_5, var_615_cast_fp16))[name = tensor<string, []>("op_633_cast_fp16")];
            tensor<string, []> var_635_equation_0 = const()[name = tensor<string, []>("op_635_equation_0"), val = tensor<string, []>("bchk,bkhq->bchq")];
            tensor<fp16, [1, 64, 1, 1500]> var_635_cast_fp16 = einsum(equation = var_635_equation_0, values = (var_573_cast_fp16_6, var_616_cast_fp16))[name = tensor<string, []>("op_635_cast_fp16")];
            tensor<string, []> var_637_equation_0 = const()[name = tensor<string, []>("op_637_equation_0"), val = tensor<string, []>("bchk,bkhq->bchq")];
            tensor<fp16, [1, 64, 1, 1500]> var_637_cast_fp16 = einsum(equation = var_637_equation_0, values = (var_573_cast_fp16_7, var_617_cast_fp16))[name = tensor<string, []>("op_637_cast_fp16")];
            tensor<string, []> var_639_equation_0 = const()[name = tensor<string, []>("op_639_equation_0"), val = tensor<string, []>("bchk,bkhq->bchq")];
            tensor<fp16, [1, 64, 1, 1500]> var_639_cast_fp16 = einsum(equation = var_639_equation_0, values = (var_573_cast_fp16_8, var_618_cast_fp16))[name = tensor<string, []>("op_639_cast_fp16")];
            tensor<string, []> var_641_equation_0 = const()[name = tensor<string, []>("op_641_equation_0"), val = tensor<string, []>("bchk,bkhq->bchq")];
            tensor<fp16, [1, 64, 1, 1500]> var_641_cast_fp16 = einsum(equation = var_641_equation_0, values = (var_573_cast_fp16_9, var_619_cast_fp16))[name = tensor<string, []>("op_641_cast_fp16")];
            tensor<string, []> var_643_equation_0 = const()[name = tensor<string, []>("op_643_equation_0"), val = tensor<string, []>("bchk,bkhq->bchq")];
            tensor<fp16, [1, 64, 1, 1500]> var_643_cast_fp16 = einsum(equation = var_643_equation_0, values = (var_573_cast_fp16_10, var_620_cast_fp16))[name = tensor<string, []>("op_643_cast_fp16")];
            tensor<string, []> var_645_equation_0 = const()[name = tensor<string, []>("op_645_equation_0"), val = tensor<string, []>("bchk,bkhq->bchq")];
            tensor<fp16, [1, 64, 1, 1500]> var_645_cast_fp16 = einsum(equation = var_645_equation_0, values = (var_573_cast_fp16_11, var_621_cast_fp16))[name = tensor<string, []>("op_645_cast_fp16")];
            tensor<bool, []> input_25_interleave_0 = const()[name = tensor<string, []>("input_25_interleave_0"), val = tensor<bool, []>(false)];
            tensor<fp16, [1, 768, 1, 1500]> input_25_cast_fp16 = concat(axis = var_494, interleave = input_25_interleave_0, values = (var_623_cast_fp16, var_625_cast_fp16, var_627_cast_fp16, var_629_cast_fp16, var_631_cast_fp16, var_633_cast_fp16, var_635_cast_fp16, var_637_cast_fp16, var_639_cast_fp16, var_641_cast_fp16, var_643_cast_fp16, var_645_cast_fp16))[name = tensor<string, []>("input_25_cast_fp16")];
            tensor<string, []> var_654_pad_type_0 = const()[name = tensor<string, []>("op_654_pad_type_0"), val = tensor<string, []>("valid")];
            tensor<int32, [2]> var_654_strides_0 = const()[name = tensor<string, []>("op_654_strides_0"), val = tensor<int32, [2]>([1, 1])];
            tensor<int32, [4]> var_654_pad_0 = const()[name = tensor<string, []>("op_654_pad_0"), val = tensor<int32, [4]>([0, 0, 0, 0])];
            tensor<int32, [2]> var_654_dilations_0 = const()[name = tensor<string, []>("op_654_dilations_0"), val = tensor<int32, [2]>([1, 1])];
            tensor<int32, []> var_654_groups_0 = const()[name = tensor<string, []>("op_654_groups_0"), val = tensor<int32, []>(1)];
            tensor<fp16, [768, 768, 1, 1]> blocks_2_attn_out_weight_to_fp16 = const()[name = tensor<string, []>("blocks_2_attn_out_weight_to_fp16"), val = tensor<fp16, [768, 768, 1, 1]>(BLOBFILE(path = tensor<string, []>("@model_path/weights/weight.bin"), offset = tensor<uint64, []>(38110912)))];
            tensor<fp16, [768]> blocks_2_attn_out_bias_to_fp16 = const()[name = tensor<string, []>("blocks_2_attn_out_bias_to_fp16"), val = tensor<fp16, [768]>(BLOBFILE(path = tensor<string, []>("@model_path/weights/weight.bin"), offset = tensor<uint64, []>(39290624)))];
            tensor<fp16, [1, 768, 1, 1500]> var_654_cast_fp16 = conv(bias = blocks_2_attn_out_bias_to_fp16, dilations = var_654_dilations_0, groups = var_654_groups_0, pad = var_654_pad_0, pad_type = var_654_pad_type_0, strides = var_654_strides_0, weight = blocks_2_attn_out_weight_to_fp16, x = input_25_cast_fp16)[name = tensor<string, []>("op_654_cast_fp16")];
            tensor<fp16, [1, 768, 1, 1500]> inputs_11_cast_fp16 = add(x = inputs_9_cast_fp16, y = var_654_cast_fp16)[name = tensor<string, []>("inputs_11_cast_fp16")];
            tensor<int32, [1]> input_27_axes_0 = const()[name = tensor<string, []>("input_27_axes_0"), val = tensor<int32, [1]>([1])];
            tensor<fp16, [768]> input_27_gamma_0_to_fp16 = const()[name = tensor<string, []>("input_27_gamma_0_to_fp16"), val = tensor<fp16, [768]>(BLOBFILE(path = tensor<string, []>("@model_path/weights/weight.bin"), offset = tensor<uint64, []>(39292224)))];
            tensor<fp16, [768]> input_27_beta_0_to_fp16 = const()[name = tensor<string, []>("input_27_beta_0_to_fp16"), val = tensor<fp16, [768]>(BLOBFILE(path = tensor<string, []>("@model_path/weights/weight.bin"), offset = tensor<uint64, []>(39293824)))];
            tensor<fp16, []> var_664_to_fp16 = const()[name = tensor<string, []>("op_664_to_fp16"), val = tensor<fp16, []>(0x1.5p-17)];
            tensor<fp16, [1, 768, 1, 1500]> input_27_cast_fp16 = layer_norm(axes = input_27_axes_0, beta = input_27_beta_0_to_fp16, epsilon = var_664_to_fp16, gamma = input_27_gamma_0_to_fp16, x = inputs_11_cast_fp16)[name = tensor<string, []>("input_27_cast_fp16")];
            tensor<string, []> input_29_pad_type_0 = const()[name = tensor<string, []>("input_29_pad_type_0"), val = tensor<string, []>("valid")];
            tensor<int32, [2]> input_29_strides_0 = const()[name = tensor<string, []>("input_29_strides_0"), val = tensor<int32, [2]>([1, 1])];
            tensor<int32, [4]> input_29_pad_0 = const()[name = tensor<string, []>("input_29_pad_0"), val = tensor<int32, [4]>([0, 0, 0, 0])];
            tensor<int32, [2]> input_29_dilations_0 = const()[name = tensor<string, []>("input_29_dilations_0"), val = tensor<int32, [2]>([1, 1])];
            tensor<int32, []> input_29_groups_0 = const()[name = tensor<string, []>("input_29_groups_0"), val = tensor<int32, []>(1)];
            tensor<fp16, [3072, 768, 1, 1]> blocks_2_mlp_0_weight_to_fp16 = const()[name = tensor<string, []>("blocks_2_mlp_0_weight_to_fp16"), val = tensor<fp16, [3072, 768, 1, 1]>(BLOBFILE(path = tensor<string, []>("@model_path/weights/weight.bin"), offset = tensor<uint64, []>(39295424)))];
            tensor<fp16, [3072]> blocks_2_mlp_0_bias_to_fp16 = const()[name = tensor<string, []>("blocks_2_mlp_0_bias_to_fp16"), val = tensor<fp16, [3072]>(BLOBFILE(path = tensor<string, []>("@model_path/weights/weight.bin"), offset = tensor<uint64, []>(44014080)))];
            tensor<fp16, [1, 3072, 1, 1500]> input_29_cast_fp16 = conv(bias = blocks_2_mlp_0_bias_to_fp16, dilations = input_29_dilations_0, groups = input_29_groups_0, pad = input_29_pad_0, pad_type = input_29_pad_type_0, strides = input_29_strides_0, weight = blocks_2_mlp_0_weight_to_fp16, x = input_27_cast_fp16)[name = tensor<string, []>("input_29_cast_fp16")];
            tensor<string, []> input_31_mode_0 = const()[name = tensor<string, []>("input_31_mode_0"), val = tensor<string, []>("EXACT")];
            tensor<fp16, [1, 3072, 1, 1500]> input_31_cast_fp16 = gelu(mode = input_31_mode_0, x = input_29_cast_fp16)[name = tensor<string, []>("input_31_cast_fp16")];
            tensor<string, []> var_690_pad_type_0 = const()[name = tensor<string, []>("op_690_pad_type_0"), val = tensor<string, []>("valid")];
            tensor<int32, [2]> var_690_strides_0 = const()[name = tensor<string, []>("op_690_strides_0"), val = tensor<int32, [2]>([1, 1])];
            tensor<int32, [4]> var_690_pad_0 = const()[name = tensor<string, []>("op_690_pad_0"), val = tensor<int32, [4]>([0, 0, 0, 0])];
            tensor<int32, [2]> var_690_dilations_0 = const()[name = tensor<string, []>("op_690_dilations_0"), val = tensor<int32, [2]>([1, 1])];
            tensor<int32, []> var_690_groups_0 = const()[name = tensor<string, []>("op_690_groups_0"), val = tensor<int32, []>(1)];
            tensor<fp16, [768, 3072, 1, 1]> blocks_2_mlp_2_weight_to_fp16 = const()[name = tensor<string, []>("blocks_2_mlp_2_weight_to_fp16"), val = tensor<fp16, [768, 3072, 1, 1]>(BLOBFILE(path = tensor<string, []>("@model_path/weights/weight.bin"), offset = tensor<uint64, []>(44020288)))];
            tensor<fp16, [768]> blocks_2_mlp_2_bias_to_fp16 = const()[name = tensor<string, []>("blocks_2_mlp_2_bias_to_fp16"), val = tensor<fp16, [768]>(BLOBFILE(path = tensor<string, []>("@model_path/weights/weight.bin"), offset = tensor<uint64, []>(48738944)))];
            tensor<fp16, [1, 768, 1, 1500]> var_690_cast_fp16 = conv(bias = blocks_2_mlp_2_bias_to_fp16, dilations = var_690_dilations_0, groups = var_690_groups_0, pad = var_690_pad_0, pad_type = var_690_pad_type_0, strides = var_690_strides_0, weight = blocks_2_mlp_2_weight_to_fp16, x = input_31_cast_fp16)[name = tensor<string, []>("op_690_cast_fp16")];
            tensor<fp16, [1, 768, 1, 1500]> inputs_13_cast_fp16 = add(x = inputs_11_cast_fp16, y = var_690_cast_fp16)[name = tensor<string, []>("inputs_13_cast_fp16")];
            tensor<int32, []> var_699 = const()[name = tensor<string, []>("op_699"), val = tensor<int32, []>(1)];
            tensor<int32, [1]> input_33_axes_0 = const()[name = tensor<string, []>("input_33_axes_0"), val = tensor<int32, [1]>([1])];
            tensor<fp16, [768]> input_33_gamma_0_to_fp16 = const()[name = tensor<string, []>("input_33_gamma_0_to_fp16"), val = tensor<fp16, [768]>(BLOBFILE(path = tensor<string, []>("@model_path/weights/weight.bin"), offset = tensor<uint64, []>(48740544)))];
            tensor<fp16, [768]> input_33_beta_0_to_fp16 = const()[name = tensor<string, []>("input_33_beta_0_to_fp16"), val = tensor<fp16, [768]>(BLOBFILE(path = tensor<string, []>("@model_path/weights/weight.bin"), offset = tensor<uint64, []>(48742144)))];
            tensor<fp16, []> var_715_to_fp16 = const()[name = tensor<string, []>("op_715_to_fp16"), val = tensor<fp16, []>(0x1.5p-17)];
            tensor<fp16, [1, 768, 1, 1500]> input_33_cast_fp16 = layer_norm(axes = input_33_axes_0, beta = input_33_beta_0_to_fp16, epsilon = var_715_to_fp16, gamma = input_33_gamma_0_to_fp16, x = inputs_13_cast_fp16)[name = tensor<string, []>("input_33_cast_fp16")];
            tensor<string, []> q_7_pad_type_0 = const()[name = tensor<string, []>("q_7_pad_type_0"), val = tensor<string, []>("valid")];
            tensor<int32, [2]> q_7_strides_0 = const()[name = tensor<string, []>("q_7_strides_0"), val = tensor<int32, [2]>([1, 1])];
            tensor<int32, [4]> q_7_pad_0 = const()[name = tensor<string, []>("q_7_pad_0"), val = tensor<int32, [4]>([0, 0, 0, 0])];
            tensor<int32, [2]> q_7_dilations_0 = const()[name = tensor<string, []>("q_7_dilations_0"), val = tensor<int32, [2]>([1, 1])];
            tensor<int32, []> q_7_groups_0 = const()[name = tensor<string, []>("q_7_groups_0"), val = tensor<int32, []>(1)];
            tensor<fp16, [768, 768, 1, 1]> var_750_weight_0_to_fp16 = const()[name = tensor<string, []>("op_750_weight_0_to_fp16"), val = tensor<fp16, [768, 768, 1, 1]>(BLOBFILE(path = tensor<string, []>("@model_path/weights/weight.bin"), offset = tensor<uint64, []>(48743744)))];
            tensor<fp16, [768]> var_750_bias_0_to_fp16 = const()[name = tensor<string, []>("op_750_bias_0_to_fp16"), val = tensor<fp16, [768]>(BLOBFILE(path = tensor<string, []>("@model_path/weights/weight.bin"), offset = tensor<uint64, []>(49923456)))];
            tensor<fp16, [1, 768, 1, 1500]> var_750_cast_fp16 = conv(bias = var_750_bias_0_to_fp16, dilations = q_7_dilations_0, groups = q_7_groups_0, pad = q_7_pad_0, pad_type = q_7_pad_type_0, strides = q_7_strides_0, weight = var_750_weight_0_to_fp16, x = input_33_cast_fp16)[name = tensor<string, []>("op_750_cast_fp16")];
            tensor<string, []> k_7_pad_type_0 = const()[name = tensor<string, []>("k_7_pad_type_0"), val = tensor<string, []>("valid")];
            tensor<int32, [2]> k_7_strides_0 = const()[name = tensor<string, []>("k_7_strides_0"), val = tensor<int32, [2]>([1, 1])];
            tensor<int32, [4]> k_7_pad_0 = const()[name = tensor<string, []>("k_7_pad_0"), val = tensor<int32, [4]>([0, 0, 0, 0])];
            tensor<int32, [2]> k_7_dilations_0 = const()[name = tensor<string, []>("k_7_dilations_0"), val = tensor<int32, [2]>([1, 1])];
            tensor<int32, []> k_7_groups_0 = const()[name = tensor<string, []>("k_7_groups_0"), val = tensor<int32, []>(1)];
            tensor<fp16, [768, 768, 1, 1]> blocks_3_attn_key_weight_to_fp16 = const()[name = tensor<string, []>("blocks_3_attn_key_weight_to_fp16"), val = tensor<fp16, [768, 768, 1, 1]>(BLOBFILE(path = tensor<string, []>("@model_path/weights/weight.bin"), offset = tensor<uint64, []>(49925056)))];
            tensor<fp16, [1, 768, 1, 1500]> k_7_cast_fp16 = conv(dilations = k_7_dilations_0, groups = k_7_groups_0, pad = k_7_pad_0, pad_type = k_7_pad_type_0, strides = k_7_strides_0, weight = blocks_3_attn_key_weight_to_fp16, x = input_33_cast_fp16)[name = tensor<string, []>("k_7_cast_fp16")];
            tensor<string, []> var_748_pad_type_0 = const()[name = tensor<string, []>("op_748_pad_type_0"), val = tensor<string, []>("valid")];
            tensor<int32, [2]> var_748_strides_0 = const()[name = tensor<string, []>("op_748_strides_0"), val = tensor<int32, [2]>([1, 1])];
            tensor<int32, [4]> var_748_pad_0 = const()[name = tensor<string, []>("op_748_pad_0"), val = tensor<int32, [4]>([0, 0, 0, 0])];
            tensor<int32, [2]> var_748_dilations_0 = const()[name = tensor<string, []>("op_748_dilations_0"), val = tensor<int32, [2]>([1, 1])];
            tensor<int32, []> var_748_groups_0 = const()[name = tensor<string, []>("op_748_groups_0"), val = tensor<int32, []>(1)];
            tensor<fp16, [768, 768, 1, 1]> blocks_3_attn_value_weight_to_fp16 = const()[name = tensor<string, []>("blocks_3_attn_value_weight_to_fp16"), val = tensor<fp16, [768, 768, 1, 1]>(BLOBFILE(path = tensor<string, []>("@model_path/weights/weight.bin"), offset = tensor<uint64, []>(51104768)))];
            tensor<fp16, [768]> blocks_3_attn_value_bias_to_fp16 = const()[name = tensor<string, []>("blocks_3_attn_value_bias_to_fp16"), val = tensor<fp16, [768]>(BLOBFILE(path = tensor<string, []>("@model_path/weights/weight.bin"), offset = tensor<uint64, []>(52284480)))];
            tensor<fp16, [1, 768, 1, 1500]> var_748_cast_fp16 = conv(bias = blocks_3_attn_value_bias_to_fp16, dilations = var_748_dilations_0, groups = var_748_groups_0, pad = var_748_pad_0, pad_type = var_748_pad_type_0, strides = var_748_strides_0, weight = blocks_3_attn_value_weight_to_fp16, x = input_33_cast_fp16)[name = tensor<string, []>("op_748_cast_fp16")];
            tensor<int32, [12]> tile_9 = const()[name = tensor<string, []>("tile_9"), val = tensor<int32, [12]>([64, 64, 64, 64, 64, 64, 64, 64, 64, 64, 64, 64])];
            tensor<int32, []> var_751_axis_0 = const()[name = tensor<string, []>("op_751_axis_0"), val = tensor<int32, []>(1)];
            tensor<fp16, [1, 64, 1, 1500]> var_751_cast_fp16_0, tensor<fp16, [1, 64, 1, 1500]> var_751_cast_fp16_1, tensor<fp16, [1, 64, 1, 1500]> var_751_cast_fp16_2, tensor<fp16, [1, 64, 1, 1500]> var_751_cast_fp16_3, tensor<fp16, [1, 64, 1, 1500]> var_751_cast_fp16_4, tensor<fp16, [1, 64, 1, 1500]> var_751_cast_fp16_5, tensor<fp16, [1, 64, 1, 1500]> var_751_cast_fp16_6, tensor<fp16, [1, 64, 1, 1500]> var_751_cast_fp16_7, tensor<fp16, [1, 64, 1, 1500]> var_751_cast_fp16_8, tensor<fp16, [1, 64, 1, 1500]> var_751_cast_fp16_9, tensor<fp16, [1, 64, 1, 1500]> var_751_cast_fp16_10, tensor<fp16, [1, 64, 1, 1500]> var_751_cast_fp16_11 = split(axis = var_751_axis_0, split_sizes = tile_9, x = var_750_cast_fp16)[name = tensor<string, []>("op_751_cast_fp16")];
            tensor<int32, [4]> var_764_perm_0 = const()[name = tensor<string, []>("op_764_perm_0"), val = tensor<int32, [4]>([0, 3, 2, 1])];
            tensor<int32, [12]> tile_10 = const()[name = tensor<string, []>("tile_10"), val = tensor<int32, [12]>([64, 64, 64, 64, 64, 64, 64, 64, 64, 64, 64, 64])];
            tensor<int32, []> var_765_axis_0 = const()[name = tensor<string, []>("op_765_axis_0"), val = tensor<int32, []>(3)];
            tensor<fp16, [1, 1500, 1, 768]> var_764_cast_fp16 = transpose(perm = var_764_perm_0, x = k_7_cast_fp16)[name = tensor<string, []>("transpose_9")];
            tensor<fp16, [1, 1500, 1, 64]> var_765_cast_fp16_0, tensor<fp16, [1, 1500, 1, 64]> var_765_cast_fp16_1, tensor<fp16, [1, 1500, 1, 64]> var_765_cast_fp16_2, tensor<fp16, [1, 1500, 1, 64]> var_765_cast_fp16_3, tensor<fp16, [1, 1500, 1, 64]> var_765_cast_fp16_4, tensor<fp16, [1, 1500, 1, 64]> var_765_cast_fp16_5, tensor<fp16, [1, 1500, 1, 64]> var_765_cast_fp16_6, tensor<fp16, [1, 1500, 1, 64]> var_765_cast_fp16_7, tensor<fp16, [1, 1500, 1, 64]> var_765_cast_fp16_8, tensor<fp16, [1, 1500, 1, 64]> var_765_cast_fp16_9, tensor<fp16, [1, 1500, 1, 64]> var_765_cast_fp16_10, tensor<fp16, [1, 1500, 1, 64]> var_765_cast_fp16_11 = split(axis = var_765_axis_0, split_sizes = tile_10, x = var_764_cast_fp16)[name = tensor<string, []>("op_765_cast_fp16")];
            tensor<int32, [12]> tile_11 = const()[name = tensor<string, []>("tile_11"), val = tensor<int32, [12]>([64, 64, 64, 64, 64, 64, 64, 64, 64, 64, 64, 64])];
            tensor<int32, []> var_778_axis_0 = const()[name = tensor<string, []>("op_778_axis_0"), val = tensor<int32, []>(1)];
            tensor<fp16, [1, 64, 1, 1500]> var_778_cast_fp16_0, tensor<fp16, [1, 64, 1, 1500]> var_778_cast_fp16_1, tensor<fp16, [1, 64, 1, 1500]> var_778_cast_fp16_2, tensor<fp16, [1, 64, 1, 1500]> var_778_cast_fp16_3, tensor<fp16, [1, 64, 1, 1500]> var_778_cast_fp16_4, tensor<fp16, [1, 64, 1, 1500]> var_778_cast_fp16_5, tensor<fp16, [1, 64, 1, 1500]> var_778_cast_fp16_6, tensor<fp16, [1, 64, 1, 1500]> var_778_cast_fp16_7, tensor<fp16, [1, 64, 1, 1500]> var_778_cast_fp16_8, tensor<fp16, [1, 64, 1, 1500]> var_778_cast_fp16_9, tensor<fp16, [1, 64, 1, 1500]> var_778_cast_fp16_10, tensor<fp16, [1, 64, 1, 1500]> var_778_cast_fp16_11 = split(axis = var_778_axis_0, split_sizes = tile_11, x = var_748_cast_fp16)[name = tensor<string, []>("op_778_cast_fp16")];
            tensor<string, []> aw_73_equation_0 = const()[name = tensor<string, []>("aw_73_equation_0"), val = tensor<string, []>("bkhc,bchq->bkhq")];
            tensor<fp16, [1, 1500, 1, 1500]> aw_73_cast_fp16 = einsum(equation = aw_73_equation_0, values = (var_765_cast_fp16_0, var_751_cast_fp16_0))[name = tensor<string, []>("aw_73_cast_fp16")];
            tensor<string, []> aw_75_equation_0 = const()[name = tensor<string, []>("aw_75_equation_0"), val = tensor<string, []>("bkhc,bchq->bkhq")];
            tensor<fp16, [1, 1500, 1, 1500]> aw_75_cast_fp16 = einsum(equation = aw_75_equation_0, values = (var_765_cast_fp16_1, var_751_cast_fp16_1))[name = tensor<string, []>("aw_75_cast_fp16")];
            tensor<string, []> aw_77_equation_0 = const()[name = tensor<string, []>("aw_77_equation_0"), val = tensor<string, []>("bkhc,bchq->bkhq")];
            tensor<fp16, [1, 1500, 1, 1500]> aw_77_cast_fp16 = einsum(equation = aw_77_equation_0, values = (var_765_cast_fp16_2, var_751_cast_fp16_2))[name = tensor<string, []>("aw_77_cast_fp16")];
            tensor<string, []> aw_79_equation_0 = const()[name = tensor<string, []>("aw_79_equation_0"), val = tensor<string, []>("bkhc,bchq->bkhq")];
            tensor<fp16, [1, 1500, 1, 1500]> aw_79_cast_fp16 = einsum(equation = aw_79_equation_0, values = (var_765_cast_fp16_3, var_751_cast_fp16_3))[name = tensor<string, []>("aw_79_cast_fp16")];
            tensor<string, []> aw_81_equation_0 = const()[name = tensor<string, []>("aw_81_equation_0"), val = tensor<string, []>("bkhc,bchq->bkhq")];
            tensor<fp16, [1, 1500, 1, 1500]> aw_81_cast_fp16 = einsum(equation = aw_81_equation_0, values = (var_765_cast_fp16_4, var_751_cast_fp16_4))[name = tensor<string, []>("aw_81_cast_fp16")];
            tensor<string, []> aw_83_equation_0 = const()[name = tensor<string, []>("aw_83_equation_0"), val = tensor<string, []>("bkhc,bchq->bkhq")];
            tensor<fp16, [1, 1500, 1, 1500]> aw_83_cast_fp16 = einsum(equation = aw_83_equation_0, values = (var_765_cast_fp16_5, var_751_cast_fp16_5))[name = tensor<string, []>("aw_83_cast_fp16")];
            tensor<string, []> aw_85_equation_0 = const()[name = tensor<string, []>("aw_85_equation_0"), val = tensor<string, []>("bkhc,bchq->bkhq")];
            tensor<fp16, [1, 1500, 1, 1500]> aw_85_cast_fp16 = einsum(equation = aw_85_equation_0, values = (var_765_cast_fp16_6, var_751_cast_fp16_6))[name = tensor<string, []>("aw_85_cast_fp16")];
            tensor<string, []> aw_87_equation_0 = const()[name = tensor<string, []>("aw_87_equation_0"), val = tensor<string, []>("bkhc,bchq->bkhq")];
            tensor<fp16, [1, 1500, 1, 1500]> aw_87_cast_fp16 = einsum(equation = aw_87_equation_0, values = (var_765_cast_fp16_7, var_751_cast_fp16_7))[name = tensor<string, []>("aw_87_cast_fp16")];
            tensor<string, []> aw_89_equation_0 = const()[name = tensor<string, []>("aw_89_equation_0"), val = tensor<string, []>("bkhc,bchq->bkhq")];
            tensor<fp16, [1, 1500, 1, 1500]> aw_89_cast_fp16 = einsum(equation = aw_89_equation_0, values = (var_765_cast_fp16_8, var_751_cast_fp16_8))[name = tensor<string, []>("aw_89_cast_fp16")];
            tensor<string, []> aw_91_equation_0 = const()[name = tensor<string, []>("aw_91_equation_0"), val = tensor<string, []>("bkhc,bchq->bkhq")];
            tensor<fp16, [1, 1500, 1, 1500]> aw_91_cast_fp16 = einsum(equation = aw_91_equation_0, values = (var_765_cast_fp16_9, var_751_cast_fp16_9))[name = tensor<string, []>("aw_91_cast_fp16")];
            tensor<string, []> aw_93_equation_0 = const()[name = tensor<string, []>("aw_93_equation_0"), val = tensor<string, []>("bkhc,bchq->bkhq")];
            tensor<fp16, [1, 1500, 1, 1500]> aw_93_cast_fp16 = einsum(equation = aw_93_equation_0, values = (var_765_cast_fp16_10, var_751_cast_fp16_10))[name = tensor<string, []>("aw_93_cast_fp16")];
            tensor<string, []> aw_95_equation_0 = const()[name = tensor<string, []>("aw_95_equation_0"), val = tensor<string, []>("bkhc,bchq->bkhq")];
            tensor<fp16, [1, 1500, 1, 1500]> aw_95_cast_fp16 = einsum(equation = aw_95_equation_0, values = (var_765_cast_fp16_11, var_751_cast_fp16_11))[name = tensor<string, []>("aw_95_cast_fp16")];
            tensor<fp16, [1, 1500, 1, 1500]> var_815_cast_fp16 = softmax(axis = var_699, x = aw_73_cast_fp16)[name = tensor<string, []>("op_815_cast_fp16")];
            tensor<fp16, [1, 1500, 1, 1500]> var_816_cast_fp16 = softmax(axis = var_699, x = aw_75_cast_fp16)[name = tensor<string, []>("op_816_cast_fp16")];
            tensor<fp16, [1, 1500, 1, 1500]> var_817_cast_fp16 = softmax(axis = var_699, x = aw_77_cast_fp16)[name = tensor<string, []>("op_817_cast_fp16")];
            tensor<fp16, [1, 1500, 1, 1500]> var_818_cast_fp16 = softmax(axis = var_699, x = aw_79_cast_fp16)[name = tensor<string, []>("op_818_cast_fp16")];
            tensor<fp16, [1, 1500, 1, 1500]> var_819_cast_fp16 = softmax(axis = var_699, x = aw_81_cast_fp16)[name = tensor<string, []>("op_819_cast_fp16")];
            tensor<fp16, [1, 1500, 1, 1500]> var_820_cast_fp16 = softmax(axis = var_699, x = aw_83_cast_fp16)[name = tensor<string, []>("op_820_cast_fp16")];
            tensor<fp16, [1, 1500, 1, 1500]> var_821_cast_fp16 = softmax(axis = var_699, x = aw_85_cast_fp16)[name = tensor<string, []>("op_821_cast_fp16")];
            tensor<fp16, [1, 1500, 1, 1500]> var_822_cast_fp16 = softmax(axis = var_699, x = aw_87_cast_fp16)[name = tensor<string, []>("op_822_cast_fp16")];
            tensor<fp16, [1, 1500, 1, 1500]> var_823_cast_fp16 = softmax(axis = var_699, x = aw_89_cast_fp16)[name = tensor<string, []>("op_823_cast_fp16")];
            tensor<fp16, [1, 1500, 1, 1500]> var_824_cast_fp16 = softmax(axis = var_699, x = aw_91_cast_fp16)[name = tensor<string, []>("op_824_cast_fp16")];
            tensor<fp16, [1, 1500, 1, 1500]> var_825_cast_fp16 = softmax(axis = var_699, x = aw_93_cast_fp16)[name = tensor<string, []>("op_825_cast_fp16")];
            tensor<fp16, [1, 1500, 1, 1500]> var_826_cast_fp16 = softmax(axis = var_699, x = aw_95_cast_fp16)[name = tensor<string, []>("op_826_cast_fp16")];
            tensor<string, []> var_828_equation_0 = const()[name = tensor<string, []>("op_828_equation_0"), val = tensor<string, []>("bchk,bkhq->bchq")];
            tensor<fp16, [1, 64, 1, 1500]> var_828_cast_fp16 = einsum(equation = var_828_equation_0, values = (var_778_cast_fp16_0, var_815_cast_fp16))[name = tensor<string, []>("op_828_cast_fp16")];
            tensor<string, []> var_830_equation_0 = const()[name = tensor<string, []>("op_830_equation_0"), val = tensor<string, []>("bchk,bkhq->bchq")];
            tensor<fp16, [1, 64, 1, 1500]> var_830_cast_fp16 = einsum(equation = var_830_equation_0, values = (var_778_cast_fp16_1, var_816_cast_fp16))[name = tensor<string, []>("op_830_cast_fp16")];
            tensor<string, []> var_832_equation_0 = const()[name = tensor<string, []>("op_832_equation_0"), val = tensor<string, []>("bchk,bkhq->bchq")];
            tensor<fp16, [1, 64, 1, 1500]> var_832_cast_fp16 = einsum(equation = var_832_equation_0, values = (var_778_cast_fp16_2, var_817_cast_fp16))[name = tensor<string, []>("op_832_cast_fp16")];
            tensor<string, []> var_834_equation_0 = const()[name = tensor<string, []>("op_834_equation_0"), val = tensor<string, []>("bchk,bkhq->bchq")];
            tensor<fp16, [1, 64, 1, 1500]> var_834_cast_fp16 = einsum(equation = var_834_equation_0, values = (var_778_cast_fp16_3, var_818_cast_fp16))[name = tensor<string, []>("op_834_cast_fp16")];
            tensor<string, []> var_836_equation_0 = const()[name = tensor<string, []>("op_836_equation_0"), val = tensor<string, []>("bchk,bkhq->bchq")];
            tensor<fp16, [1, 64, 1, 1500]> var_836_cast_fp16 = einsum(equation = var_836_equation_0, values = (var_778_cast_fp16_4, var_819_cast_fp16))[name = tensor<string, []>("op_836_cast_fp16")];
            tensor<string, []> var_838_equation_0 = const()[name = tensor<string, []>("op_838_equation_0"), val = tensor<string, []>("bchk,bkhq->bchq")];
            tensor<fp16, [1, 64, 1, 1500]> var_838_cast_fp16 = einsum(equation = var_838_equation_0, values = (var_778_cast_fp16_5, var_820_cast_fp16))[name = tensor<string, []>("op_838_cast_fp16")];
            tensor<string, []> var_840_equation_0 = const()[name = tensor<string, []>("op_840_equation_0"), val = tensor<string, []>("bchk,bkhq->bchq")];
            tensor<fp16, [1, 64, 1, 1500]> var_840_cast_fp16 = einsum(equation = var_840_equation_0, values = (var_778_cast_fp16_6, var_821_cast_fp16))[name = tensor<string, []>("op_840_cast_fp16")];
            tensor<string, []> var_842_equation_0 = const()[name = tensor<string, []>("op_842_equation_0"), val = tensor<string, []>("bchk,bkhq->bchq")];
            tensor<fp16, [1, 64, 1, 1500]> var_842_cast_fp16 = einsum(equation = var_842_equation_0, values = (var_778_cast_fp16_7, var_822_cast_fp16))[name = tensor<string, []>("op_842_cast_fp16")];
            tensor<string, []> var_844_equation_0 = const()[name = tensor<string, []>("op_844_equation_0"), val = tensor<string, []>("bchk,bkhq->bchq")];
            tensor<fp16, [1, 64, 1, 1500]> var_844_cast_fp16 = einsum(equation = var_844_equation_0, values = (var_778_cast_fp16_8, var_823_cast_fp16))[name = tensor<string, []>("op_844_cast_fp16")];
            tensor<string, []> var_846_equation_0 = const()[name = tensor<string, []>("op_846_equation_0"), val = tensor<string, []>("bchk,bkhq->bchq")];
            tensor<fp16, [1, 64, 1, 1500]> var_846_cast_fp16 = einsum(equation = var_846_equation_0, values = (var_778_cast_fp16_9, var_824_cast_fp16))[name = tensor<string, []>("op_846_cast_fp16")];
            tensor<string, []> var_848_equation_0 = const()[name = tensor<string, []>("op_848_equation_0"), val = tensor<string, []>("bchk,bkhq->bchq")];
            tensor<fp16, [1, 64, 1, 1500]> var_848_cast_fp16 = einsum(equation = var_848_equation_0, values = (var_778_cast_fp16_10, var_825_cast_fp16))[name = tensor<string, []>("op_848_cast_fp16")];
            tensor<string, []> var_850_equation_0 = const()[name = tensor<string, []>("op_850_equation_0"), val = tensor<string, []>("bchk,bkhq->bchq")];
            tensor<fp16, [1, 64, 1, 1500]> var_850_cast_fp16 = einsum(equation = var_850_equation_0, values = (var_778_cast_fp16_11, var_826_cast_fp16))[name = tensor<string, []>("op_850_cast_fp16")];
            tensor<bool, []> input_35_interleave_0 = const()[name = tensor<string, []>("input_35_interleave_0"), val = tensor<bool, []>(false)];
            tensor<fp16, [1, 768, 1, 1500]> input_35_cast_fp16 = concat(axis = var_699, interleave = input_35_interleave_0, values = (var_828_cast_fp16, var_830_cast_fp16, var_832_cast_fp16, var_834_cast_fp16, var_836_cast_fp16, var_838_cast_fp16, var_840_cast_fp16, var_842_cast_fp16, var_844_cast_fp16, var_846_cast_fp16, var_848_cast_fp16, var_850_cast_fp16))[name = tensor<string, []>("input_35_cast_fp16")];
            tensor<string, []> var_859_pad_type_0 = const()[name = tensor<string, []>("op_859_pad_type_0"), val = tensor<string, []>("valid")];
            tensor<int32, [2]> var_859_strides_0 = const()[name = tensor<string, []>("op_859_strides_0"), val = tensor<int32, [2]>([1, 1])];
            tensor<int32, [4]> var_859_pad_0 = const()[name = tensor<string, []>("op_859_pad_0"), val = tensor<int32, [4]>([0, 0, 0, 0])];
            tensor<int32, [2]> var_859_dilations_0 = const()[name = tensor<string, []>("op_859_dilations_0"), val = tensor<int32, [2]>([1, 1])];
            tensor<int32, []> var_859_groups_0 = const()[name = tensor<string, []>("op_859_groups_0"), val = tensor<int32, []>(1)];
            tensor<fp16, [768, 768, 1, 1]> blocks_3_attn_out_weight_to_fp16 = const()[name = tensor<string, []>("blocks_3_attn_out_weight_to_fp16"), val = tensor<fp16, [768, 768, 1, 1]>(BLOBFILE(path = tensor<string, []>("@model_path/weights/weight.bin"), offset = tensor<uint64, []>(52286080)))];
            tensor<fp16, [768]> blocks_3_attn_out_bias_to_fp16 = const()[name = tensor<string, []>("blocks_3_attn_out_bias_to_fp16"), val = tensor<fp16, [768]>(BLOBFILE(path = tensor<string, []>("@model_path/weights/weight.bin"), offset = tensor<uint64, []>(53465792)))];
            tensor<fp16, [1, 768, 1, 1500]> var_859_cast_fp16 = conv(bias = blocks_3_attn_out_bias_to_fp16, dilations = var_859_dilations_0, groups = var_859_groups_0, pad = var_859_pad_0, pad_type = var_859_pad_type_0, strides = var_859_strides_0, weight = blocks_3_attn_out_weight_to_fp16, x = input_35_cast_fp16)[name = tensor<string, []>("op_859_cast_fp16")];
            tensor<fp16, [1, 768, 1, 1500]> inputs_15_cast_fp16 = add(x = inputs_13_cast_fp16, y = var_859_cast_fp16)[name = tensor<string, []>("inputs_15_cast_fp16")];
            tensor<int32, [1]> input_37_axes_0 = const()[name = tensor<string, []>("input_37_axes_0"), val = tensor<int32, [1]>([1])];
            tensor<fp16, [768]> input_37_gamma_0_to_fp16 = const()[name = tensor<string, []>("input_37_gamma_0_to_fp16"), val = tensor<fp16, [768]>(BLOBFILE(path = tensor<string, []>("@model_path/weights/weight.bin"), offset = tensor<uint64, []>(53467392)))];
            tensor<fp16, [768]> input_37_beta_0_to_fp16 = const()[name = tensor<string, []>("input_37_beta_0_to_fp16"), val = tensor<fp16, [768]>(BLOBFILE(path = tensor<string, []>("@model_path/weights/weight.bin"), offset = tensor<uint64, []>(53468992)))];
            tensor<fp16, []> var_869_to_fp16 = const()[name = tensor<string, []>("op_869_to_fp16"), val = tensor<fp16, []>(0x1.5p-17)];
            tensor<fp16, [1, 768, 1, 1500]> input_37_cast_fp16 = layer_norm(axes = input_37_axes_0, beta = input_37_beta_0_to_fp16, epsilon = var_869_to_fp16, gamma = input_37_gamma_0_to_fp16, x = inputs_15_cast_fp16)[name = tensor<string, []>("input_37_cast_fp16")];
            tensor<string, []> input_39_pad_type_0 = const()[name = tensor<string, []>("input_39_pad_type_0"), val = tensor<string, []>("valid")];
            tensor<int32, [2]> input_39_strides_0 = const()[name = tensor<string, []>("input_39_strides_0"), val = tensor<int32, [2]>([1, 1])];
            tensor<int32, [4]> input_39_pad_0 = const()[name = tensor<string, []>("input_39_pad_0"), val = tensor<int32, [4]>([0, 0, 0, 0])];
            tensor<int32, [2]> input_39_dilations_0 = const()[name = tensor<string, []>("input_39_dilations_0"), val = tensor<int32, [2]>([1, 1])];
            tensor<int32, []> input_39_groups_0 = const()[name = tensor<string, []>("input_39_groups_0"), val = tensor<int32, []>(1)];
            tensor<fp16, [3072, 768, 1, 1]> blocks_3_mlp_0_weight_to_fp16 = const()[name = tensor<string, []>("blocks_3_mlp_0_weight_to_fp16"), val = tensor<fp16, [3072, 768, 1, 1]>(BLOBFILE(path = tensor<string, []>("@model_path/weights/weight.bin"), offset = tensor<uint64, []>(53470592)))];
            tensor<fp16, [3072]> blocks_3_mlp_0_bias_to_fp16 = const()[name = tensor<string, []>("blocks_3_mlp_0_bias_to_fp16"), val = tensor<fp16, [3072]>(BLOBFILE(path = tensor<string, []>("@model_path/weights/weight.bin"), offset = tensor<uint64, []>(58189248)))];
            tensor<fp16, [1, 3072, 1, 1500]> input_39_cast_fp16 = conv(bias = blocks_3_mlp_0_bias_to_fp16, dilations = input_39_dilations_0, groups = input_39_groups_0, pad = input_39_pad_0, pad_type = input_39_pad_type_0, strides = input_39_strides_0, weight = blocks_3_mlp_0_weight_to_fp16, x = input_37_cast_fp16)[name = tensor<string, []>("input_39_cast_fp16")];
            tensor<string, []> input_41_mode_0 = const()[name = tensor<string, []>("input_41_mode_0"), val = tensor<string, []>("EXACT")];
            tensor<fp16, [1, 3072, 1, 1500]> input_41_cast_fp16 = gelu(mode = input_41_mode_0, x = input_39_cast_fp16)[name = tensor<string, []>("input_41_cast_fp16")];
            tensor<string, []> var_895_pad_type_0 = const()[name = tensor<string, []>("op_895_pad_type_0"), val = tensor<string, []>("valid")];
            tensor<int32, [2]> var_895_strides_0 = const()[name = tensor<string, []>("op_895_strides_0"), val = tensor<int32, [2]>([1, 1])];
            tensor<int32, [4]> var_895_pad_0 = const()[name = tensor<string, []>("op_895_pad_0"), val = tensor<int32, [4]>([0, 0, 0, 0])];
            tensor<int32, [2]> var_895_dilations_0 = const()[name = tensor<string, []>("op_895_dilations_0"), val = tensor<int32, [2]>([1, 1])];
            tensor<int32, []> var_895_groups_0 = const()[name = tensor<string, []>("op_895_groups_0"), val = tensor<int32, []>(1)];
            tensor<fp16, [768, 3072, 1, 1]> blocks_3_mlp_2_weight_to_fp16 = const()[name = tensor<string, []>("blocks_3_mlp_2_weight_to_fp16"), val = tensor<fp16, [768, 3072, 1, 1]>(BLOBFILE(path = tensor<string, []>("@model_path/weights/weight.bin"), offset = tensor<uint64, []>(58195456)))];
            tensor<fp16, [768]> blocks_3_mlp_2_bias_to_fp16 = const()[name = tensor<string, []>("blocks_3_mlp_2_bias_to_fp16"), val = tensor<fp16, [768]>(BLOBFILE(path = tensor<string, []>("@model_path/weights/weight.bin"), offset = tensor<uint64, []>(62914112)))];
            tensor<fp16, [1, 768, 1, 1500]> var_895_cast_fp16 = conv(bias = blocks_3_mlp_2_bias_to_fp16, dilations = var_895_dilations_0, groups = var_895_groups_0, pad = var_895_pad_0, pad_type = var_895_pad_type_0, strides = var_895_strides_0, weight = blocks_3_mlp_2_weight_to_fp16, x = input_41_cast_fp16)[name = tensor<string, []>("op_895_cast_fp16")];
            tensor<fp16, [1, 768, 1, 1500]> inputs_17_cast_fp16 = add(x = inputs_15_cast_fp16, y = var_895_cast_fp16)[name = tensor<string, []>("inputs_17_cast_fp16")];
            tensor<int32, []> var_904 = const()[name = tensor<string, []>("op_904"), val = tensor<int32, []>(1)];
            tensor<int32, [1]> input_43_axes_0 = const()[name = tensor<string, []>("input_43_axes_0"), val = tensor<int32, [1]>([1])];
            tensor<fp16, [768]> input_43_gamma_0_to_fp16 = const()[name = tensor<string, []>("input_43_gamma_0_to_fp16"), val = tensor<fp16, [768]>(BLOBFILE(path = tensor<string, []>("@model_path/weights/weight.bin"), offset = tensor<uint64, []>(62915712)))];
            tensor<fp16, [768]> input_43_beta_0_to_fp16 = const()[name = tensor<string, []>("input_43_beta_0_to_fp16"), val = tensor<fp16, [768]>(BLOBFILE(path = tensor<string, []>("@model_path/weights/weight.bin"), offset = tensor<uint64, []>(62917312)))];
            tensor<fp16, []> var_920_to_fp16 = const()[name = tensor<string, []>("op_920_to_fp16"), val = tensor<fp16, []>(0x1.5p-17)];
            tensor<fp16, [1, 768, 1, 1500]> input_43_cast_fp16 = layer_norm(axes = input_43_axes_0, beta = input_43_beta_0_to_fp16, epsilon = var_920_to_fp16, gamma = input_43_gamma_0_to_fp16, x = inputs_17_cast_fp16)[name = tensor<string, []>("input_43_cast_fp16")];
            tensor<string, []> q_9_pad_type_0 = const()[name = tensor<string, []>("q_9_pad_type_0"), val = tensor<string, []>("valid")];
            tensor<int32, [2]> q_9_strides_0 = const()[name = tensor<string, []>("q_9_strides_0"), val = tensor<int32, [2]>([1, 1])];
            tensor<int32, [4]> q_9_pad_0 = const()[name = tensor<string, []>("q_9_pad_0"), val = tensor<int32, [4]>([0, 0, 0, 0])];
            tensor<int32, [2]> q_9_dilations_0 = const()[name = tensor<string, []>("q_9_dilations_0"), val = tensor<int32, [2]>([1, 1])];
            tensor<int32, []> q_9_groups_0 = const()[name = tensor<string, []>("q_9_groups_0"), val = tensor<int32, []>(1)];
            tensor<fp16, [768, 768, 1, 1]> var_955_weight_0_to_fp16 = const()[name = tensor<string, []>("op_955_weight_0_to_fp16"), val = tensor<fp16, [768, 768, 1, 1]>(BLOBFILE(path = tensor<string, []>("@model_path/weights/weight.bin"), offset = tensor<uint64, []>(62918912)))];
            tensor<fp16, [768]> var_955_bias_0_to_fp16 = const()[name = tensor<string, []>("op_955_bias_0_to_fp16"), val = tensor<fp16, [768]>(BLOBFILE(path = tensor<string, []>("@model_path/weights/weight.bin"), offset = tensor<uint64, []>(64098624)))];
            tensor<fp16, [1, 768, 1, 1500]> var_955_cast_fp16 = conv(bias = var_955_bias_0_to_fp16, dilations = q_9_dilations_0, groups = q_9_groups_0, pad = q_9_pad_0, pad_type = q_9_pad_type_0, strides = q_9_strides_0, weight = var_955_weight_0_to_fp16, x = input_43_cast_fp16)[name = tensor<string, []>("op_955_cast_fp16")];
            tensor<string, []> k_9_pad_type_0 = const()[name = tensor<string, []>("k_9_pad_type_0"), val = tensor<string, []>("valid")];
            tensor<int32, [2]> k_9_strides_0 = const()[name = tensor<string, []>("k_9_strides_0"), val = tensor<int32, [2]>([1, 1])];
            tensor<int32, [4]> k_9_pad_0 = const()[name = tensor<string, []>("k_9_pad_0"), val = tensor<int32, [4]>([0, 0, 0, 0])];
            tensor<int32, [2]> k_9_dilations_0 = const()[name = tensor<string, []>("k_9_dilations_0"), val = tensor<int32, [2]>([1, 1])];
            tensor<int32, []> k_9_groups_0 = const()[name = tensor<string, []>("k_9_groups_0"), val = tensor<int32, []>(1)];
            tensor<fp16, [768, 768, 1, 1]> blocks_4_attn_key_weight_to_fp16 = const()[name = tensor<string, []>("blocks_4_attn_key_weight_to_fp16"), val = tensor<fp16, [768, 768, 1, 1]>(BLOBFILE(path = tensor<string, []>("@model_path/weights/weight.bin"), offset = tensor<uint64, []>(64100224)))];
            tensor<fp16, [1, 768, 1, 1500]> k_9_cast_fp16 = conv(dilations = k_9_dilations_0, groups = k_9_groups_0, pad = k_9_pad_0, pad_type = k_9_pad_type_0, strides = k_9_strides_0, weight = blocks_4_attn_key_weight_to_fp16, x = input_43_cast_fp16)[name = tensor<string, []>("k_9_cast_fp16")];
            tensor<string, []> var_953_pad_type_0 = const()[name = tensor<string, []>("op_953_pad_type_0"), val = tensor<string, []>("valid")];
            tensor<int32, [2]> var_953_strides_0 = const()[name = tensor<string, []>("op_953_strides_0"), val = tensor<int32, [2]>([1, 1])];
            tensor<int32, [4]> var_953_pad_0 = const()[name = tensor<string, []>("op_953_pad_0"), val = tensor<int32, [4]>([0, 0, 0, 0])];
            tensor<int32, [2]> var_953_dilations_0 = const()[name = tensor<string, []>("op_953_dilations_0"), val = tensor<int32, [2]>([1, 1])];
            tensor<int32, []> var_953_groups_0 = const()[name = tensor<string, []>("op_953_groups_0"), val = tensor<int32, []>(1)];
            tensor<fp16, [768, 768, 1, 1]> blocks_4_attn_value_weight_to_fp16 = const()[name = tensor<string, []>("blocks_4_attn_value_weight_to_fp16"), val = tensor<fp16, [768, 768, 1, 1]>(BLOBFILE(path = tensor<string, []>("@model_path/weights/weight.bin"), offset = tensor<uint64, []>(65279936)))];
            tensor<fp16, [768]> blocks_4_attn_value_bias_to_fp16 = const()[name = tensor<string, []>("blocks_4_attn_value_bias_to_fp16"), val = tensor<fp16, [768]>(BLOBFILE(path = tensor<string, []>("@model_path/weights/weight.bin"), offset = tensor<uint64, []>(66459648)))];
            tensor<fp16, [1, 768, 1, 1500]> var_953_cast_fp16 = conv(bias = blocks_4_attn_value_bias_to_fp16, dilations = var_953_dilations_0, groups = var_953_groups_0, pad = var_953_pad_0, pad_type = var_953_pad_type_0, strides = var_953_strides_0, weight = blocks_4_attn_value_weight_to_fp16, x = input_43_cast_fp16)[name = tensor<string, []>("op_953_cast_fp16")];
            tensor<int32, [12]> tile_12 = const()[name = tensor<string, []>("tile_12"), val = tensor<int32, [12]>([64, 64, 64, 64, 64, 64, 64, 64, 64, 64, 64, 64])];
            tensor<int32, []> var_956_axis_0 = const()[name = tensor<string, []>("op_956_axis_0"), val = tensor<int32, []>(1)];
            tensor<fp16, [1, 64, 1, 1500]> var_956_cast_fp16_0, tensor<fp16, [1, 64, 1, 1500]> var_956_cast_fp16_1, tensor<fp16, [1, 64, 1, 1500]> var_956_cast_fp16_2, tensor<fp16, [1, 64, 1, 1500]> var_956_cast_fp16_3, tensor<fp16, [1, 64, 1, 1500]> var_956_cast_fp16_4, tensor<fp16, [1, 64, 1, 1500]> var_956_cast_fp16_5, tensor<fp16, [1, 64, 1, 1500]> var_956_cast_fp16_6, tensor<fp16, [1, 64, 1, 1500]> var_956_cast_fp16_7, tensor<fp16, [1, 64, 1, 1500]> var_956_cast_fp16_8, tensor<fp16, [1, 64, 1, 1500]> var_956_cast_fp16_9, tensor<fp16, [1, 64, 1, 1500]> var_956_cast_fp16_10, tensor<fp16, [1, 64, 1, 1500]> var_956_cast_fp16_11 = split(axis = var_956_axis_0, split_sizes = tile_12, x = var_955_cast_fp16)[name = tensor<string, []>("op_956_cast_fp16")];
            tensor<int32, [4]> var_969_perm_0 = const()[name = tensor<string, []>("op_969_perm_0"), val = tensor<int32, [4]>([0, 3, 2, 1])];
            tensor<int32, [12]> tile_13 = const()[name = tensor<string, []>("tile_13"), val = tensor<int32, [12]>([64, 64, 64, 64, 64, 64, 64, 64, 64, 64, 64, 64])];
            tensor<int32, []> var_970_axis_0 = const()[name = tensor<string, []>("op_970_axis_0"), val = tensor<int32, []>(3)];
            tensor<fp16, [1, 1500, 1, 768]> var_969_cast_fp16 = transpose(perm = var_969_perm_0, x = k_9_cast_fp16)[name = tensor<string, []>("transpose_8")];
            tensor<fp16, [1, 1500, 1, 64]> var_970_cast_fp16_0, tensor<fp16, [1, 1500, 1, 64]> var_970_cast_fp16_1, tensor<fp16, [1, 1500, 1, 64]> var_970_cast_fp16_2, tensor<fp16, [1, 1500, 1, 64]> var_970_cast_fp16_3, tensor<fp16, [1, 1500, 1, 64]> var_970_cast_fp16_4, tensor<fp16, [1, 1500, 1, 64]> var_970_cast_fp16_5, tensor<fp16, [1, 1500, 1, 64]> var_970_cast_fp16_6, tensor<fp16, [1, 1500, 1, 64]> var_970_cast_fp16_7, tensor<fp16, [1, 1500, 1, 64]> var_970_cast_fp16_8, tensor<fp16, [1, 1500, 1, 64]> var_970_cast_fp16_9, tensor<fp16, [1, 1500, 1, 64]> var_970_cast_fp16_10, tensor<fp16, [1, 1500, 1, 64]> var_970_cast_fp16_11 = split(axis = var_970_axis_0, split_sizes = tile_13, x = var_969_cast_fp16)[name = tensor<string, []>("op_970_cast_fp16")];
            tensor<int32, [12]> tile_14 = const()[name = tensor<string, []>("tile_14"), val = tensor<int32, [12]>([64, 64, 64, 64, 64, 64, 64, 64, 64, 64, 64, 64])];
            tensor<int32, []> var_983_axis_0 = const()[name = tensor<string, []>("op_983_axis_0"), val = tensor<int32, []>(1)];
            tensor<fp16, [1, 64, 1, 1500]> var_983_cast_fp16_0, tensor<fp16, [1, 64, 1, 1500]> var_983_cast_fp16_1, tensor<fp16, [1, 64, 1, 1500]> var_983_cast_fp16_2, tensor<fp16, [1, 64, 1, 1500]> var_983_cast_fp16_3, tensor<fp16, [1, 64, 1, 1500]> var_983_cast_fp16_4, tensor<fp16, [1, 64, 1, 1500]> var_983_cast_fp16_5, tensor<fp16, [1, 64, 1, 1500]> var_983_cast_fp16_6, tensor<fp16, [1, 64, 1, 1500]> var_983_cast_fp16_7, tensor<fp16, [1, 64, 1, 1500]> var_983_cast_fp16_8, tensor<fp16, [1, 64, 1, 1500]> var_983_cast_fp16_9, tensor<fp16, [1, 64, 1, 1500]> var_983_cast_fp16_10, tensor<fp16, [1, 64, 1, 1500]> var_983_cast_fp16_11 = split(axis = var_983_axis_0, split_sizes = tile_14, x = var_953_cast_fp16)[name = tensor<string, []>("op_983_cast_fp16")];
            tensor<string, []> aw_97_equation_0 = const()[name = tensor<string, []>("aw_97_equation_0"), val = tensor<string, []>("bkhc,bchq->bkhq")];
            tensor<fp16, [1, 1500, 1, 1500]> aw_97_cast_fp16 = einsum(equation = aw_97_equation_0, values = (var_970_cast_fp16_0, var_956_cast_fp16_0))[name = tensor<string, []>("aw_97_cast_fp16")];
            tensor<string, []> aw_99_equation_0 = const()[name = tensor<string, []>("aw_99_equation_0"), val = tensor<string, []>("bkhc,bchq->bkhq")];
            tensor<fp16, [1, 1500, 1, 1500]> aw_99_cast_fp16 = einsum(equation = aw_99_equation_0, values = (var_970_cast_fp16_1, var_956_cast_fp16_1))[name = tensor<string, []>("aw_99_cast_fp16")];
            tensor<string, []> aw_101_equation_0 = const()[name = tensor<string, []>("aw_101_equation_0"), val = tensor<string, []>("bkhc,bchq->bkhq")];
            tensor<fp16, [1, 1500, 1, 1500]> aw_101_cast_fp16 = einsum(equation = aw_101_equation_0, values = (var_970_cast_fp16_2, var_956_cast_fp16_2))[name = tensor<string, []>("aw_101_cast_fp16")];
            tensor<string, []> aw_103_equation_0 = const()[name = tensor<string, []>("aw_103_equation_0"), val = tensor<string, []>("bkhc,bchq->bkhq")];
            tensor<fp16, [1, 1500, 1, 1500]> aw_103_cast_fp16 = einsum(equation = aw_103_equation_0, values = (var_970_cast_fp16_3, var_956_cast_fp16_3))[name = tensor<string, []>("aw_103_cast_fp16")];
            tensor<string, []> aw_105_equation_0 = const()[name = tensor<string, []>("aw_105_equation_0"), val = tensor<string, []>("bkhc,bchq->bkhq")];
            tensor<fp16, [1, 1500, 1, 1500]> aw_105_cast_fp16 = einsum(equation = aw_105_equation_0, values = (var_970_cast_fp16_4, var_956_cast_fp16_4))[name = tensor<string, []>("aw_105_cast_fp16")];
            tensor<string, []> aw_107_equation_0 = const()[name = tensor<string, []>("aw_107_equation_0"), val = tensor<string, []>("bkhc,bchq->bkhq")];
            tensor<fp16, [1, 1500, 1, 1500]> aw_107_cast_fp16 = einsum(equation = aw_107_equation_0, values = (var_970_cast_fp16_5, var_956_cast_fp16_5))[name = tensor<string, []>("aw_107_cast_fp16")];
            tensor<string, []> aw_109_equation_0 = const()[name = tensor<string, []>("aw_109_equation_0"), val = tensor<string, []>("bkhc,bchq->bkhq")];
            tensor<fp16, [1, 1500, 1, 1500]> aw_109_cast_fp16 = einsum(equation = aw_109_equation_0, values = (var_970_cast_fp16_6, var_956_cast_fp16_6))[name = tensor<string, []>("aw_109_cast_fp16")];
            tensor<string, []> aw_111_equation_0 = const()[name = tensor<string, []>("aw_111_equation_0"), val = tensor<string, []>("bkhc,bchq->bkhq")];
            tensor<fp16, [1, 1500, 1, 1500]> aw_111_cast_fp16 = einsum(equation = aw_111_equation_0, values = (var_970_cast_fp16_7, var_956_cast_fp16_7))[name = tensor<string, []>("aw_111_cast_fp16")];
            tensor<string, []> aw_113_equation_0 = const()[name = tensor<string, []>("aw_113_equation_0"), val = tensor<string, []>("bkhc,bchq->bkhq")];
            tensor<fp16, [1, 1500, 1, 1500]> aw_113_cast_fp16 = einsum(equation = aw_113_equation_0, values = (var_970_cast_fp16_8, var_956_cast_fp16_8))[name = tensor<string, []>("aw_113_cast_fp16")];
            tensor<string, []> aw_115_equation_0 = const()[name = tensor<string, []>("aw_115_equation_0"), val = tensor<string, []>("bkhc,bchq->bkhq")];
            tensor<fp16, [1, 1500, 1, 1500]> aw_115_cast_fp16 = einsum(equation = aw_115_equation_0, values = (var_970_cast_fp16_9, var_956_cast_fp16_9))[name = tensor<string, []>("aw_115_cast_fp16")];
            tensor<string, []> aw_117_equation_0 = const()[name = tensor<string, []>("aw_117_equation_0"), val = tensor<string, []>("bkhc,bchq->bkhq")];
            tensor<fp16, [1, 1500, 1, 1500]> aw_117_cast_fp16 = einsum(equation = aw_117_equation_0, values = (var_970_cast_fp16_10, var_956_cast_fp16_10))[name = tensor<string, []>("aw_117_cast_fp16")];
            tensor<string, []> aw_119_equation_0 = const()[name = tensor<string, []>("aw_119_equation_0"), val = tensor<string, []>("bkhc,bchq->bkhq")];
            tensor<fp16, [1, 1500, 1, 1500]> aw_119_cast_fp16 = einsum(equation = aw_119_equation_0, values = (var_970_cast_fp16_11, var_956_cast_fp16_11))[name = tensor<string, []>("aw_119_cast_fp16")];
            tensor<fp16, [1, 1500, 1, 1500]> var_1020_cast_fp16 = softmax(axis = var_904, x = aw_97_cast_fp16)[name = tensor<string, []>("op_1020_cast_fp16")];
            tensor<fp16, [1, 1500, 1, 1500]> var_1021_cast_fp16 = softmax(axis = var_904, x = aw_99_cast_fp16)[name = tensor<string, []>("op_1021_cast_fp16")];
            tensor<fp16, [1, 1500, 1, 1500]> var_1022_cast_fp16 = softmax(axis = var_904, x = aw_101_cast_fp16)[name = tensor<string, []>("op_1022_cast_fp16")];
            tensor<fp16, [1, 1500, 1, 1500]> var_1023_cast_fp16 = softmax(axis = var_904, x = aw_103_cast_fp16)[name = tensor<string, []>("op_1023_cast_fp16")];
            tensor<fp16, [1, 1500, 1, 1500]> var_1024_cast_fp16 = softmax(axis = var_904, x = aw_105_cast_fp16)[name = tensor<string, []>("op_1024_cast_fp16")];
            tensor<fp16, [1, 1500, 1, 1500]> var_1025_cast_fp16 = softmax(axis = var_904, x = aw_107_cast_fp16)[name = tensor<string, []>("op_1025_cast_fp16")];
            tensor<fp16, [1, 1500, 1, 1500]> var_1026_cast_fp16 = softmax(axis = var_904, x = aw_109_cast_fp16)[name = tensor<string, []>("op_1026_cast_fp16")];
            tensor<fp16, [1, 1500, 1, 1500]> var_1027_cast_fp16 = softmax(axis = var_904, x = aw_111_cast_fp16)[name = tensor<string, []>("op_1027_cast_fp16")];
            tensor<fp16, [1, 1500, 1, 1500]> var_1028_cast_fp16 = softmax(axis = var_904, x = aw_113_cast_fp16)[name = tensor<string, []>("op_1028_cast_fp16")];
            tensor<fp16, [1, 1500, 1, 1500]> var_1029_cast_fp16 = softmax(axis = var_904, x = aw_115_cast_fp16)[name = tensor<string, []>("op_1029_cast_fp16")];
            tensor<fp16, [1, 1500, 1, 1500]> var_1030_cast_fp16 = softmax(axis = var_904, x = aw_117_cast_fp16)[name = tensor<string, []>("op_1030_cast_fp16")];
            tensor<fp16, [1, 1500, 1, 1500]> var_1031_cast_fp16 = softmax(axis = var_904, x = aw_119_cast_fp16)[name = tensor<string, []>("op_1031_cast_fp16")];
            tensor<string, []> var_1033_equation_0 = const()[name = tensor<string, []>("op_1033_equation_0"), val = tensor<string, []>("bchk,bkhq->bchq")];
            tensor<fp16, [1, 64, 1, 1500]> var_1033_cast_fp16 = einsum(equation = var_1033_equation_0, values = (var_983_cast_fp16_0, var_1020_cast_fp16))[name = tensor<string, []>("op_1033_cast_fp16")];
            tensor<string, []> var_1035_equation_0 = const()[name = tensor<string, []>("op_1035_equation_0"), val = tensor<string, []>("bchk,bkhq->bchq")];
            tensor<fp16, [1, 64, 1, 1500]> var_1035_cast_fp16 = einsum(equation = var_1035_equation_0, values = (var_983_cast_fp16_1, var_1021_cast_fp16))[name = tensor<string, []>("op_1035_cast_fp16")];
            tensor<string, []> var_1037_equation_0 = const()[name = tensor<string, []>("op_1037_equation_0"), val = tensor<string, []>("bchk,bkhq->bchq")];
            tensor<fp16, [1, 64, 1, 1500]> var_1037_cast_fp16 = einsum(equation = var_1037_equation_0, values = (var_983_cast_fp16_2, var_1022_cast_fp16))[name = tensor<string, []>("op_1037_cast_fp16")];
            tensor<string, []> var_1039_equation_0 = const()[name = tensor<string, []>("op_1039_equation_0"), val = tensor<string, []>("bchk,bkhq->bchq")];
            tensor<fp16, [1, 64, 1, 1500]> var_1039_cast_fp16 = einsum(equation = var_1039_equation_0, values = (var_983_cast_fp16_3, var_1023_cast_fp16))[name = tensor<string, []>("op_1039_cast_fp16")];
            tensor<string, []> var_1041_equation_0 = const()[name = tensor<string, []>("op_1041_equation_0"), val = tensor<string, []>("bchk,bkhq->bchq")];
            tensor<fp16, [1, 64, 1, 1500]> var_1041_cast_fp16 = einsum(equation = var_1041_equation_0, values = (var_983_cast_fp16_4, var_1024_cast_fp16))[name = tensor<string, []>("op_1041_cast_fp16")];
            tensor<string, []> var_1043_equation_0 = const()[name = tensor<string, []>("op_1043_equation_0"), val = tensor<string, []>("bchk,bkhq->bchq")];
            tensor<fp16, [1, 64, 1, 1500]> var_1043_cast_fp16 = einsum(equation = var_1043_equation_0, values = (var_983_cast_fp16_5, var_1025_cast_fp16))[name = tensor<string, []>("op_1043_cast_fp16")];
            tensor<string, []> var_1045_equation_0 = const()[name = tensor<string, []>("op_1045_equation_0"), val = tensor<string, []>("bchk,bkhq->bchq")];
            tensor<fp16, [1, 64, 1, 1500]> var_1045_cast_fp16 = einsum(equation = var_1045_equation_0, values = (var_983_cast_fp16_6, var_1026_cast_fp16))[name = tensor<string, []>("op_1045_cast_fp16")];
            tensor<string, []> var_1047_equation_0 = const()[name = tensor<string, []>("op_1047_equation_0"), val = tensor<string, []>("bchk,bkhq->bchq")];
            tensor<fp16, [1, 64, 1, 1500]> var_1047_cast_fp16 = einsum(equation = var_1047_equation_0, values = (var_983_cast_fp16_7, var_1027_cast_fp16))[name = tensor<string, []>("op_1047_cast_fp16")];
            tensor<string, []> var_1049_equation_0 = const()[name = tensor<string, []>("op_1049_equation_0"), val = tensor<string, []>("bchk,bkhq->bchq")];
            tensor<fp16, [1, 64, 1, 1500]> var_1049_cast_fp16 = einsum(equation = var_1049_equation_0, values = (var_983_cast_fp16_8, var_1028_cast_fp16))[name = tensor<string, []>("op_1049_cast_fp16")];
            tensor<string, []> var_1051_equation_0 = const()[name = tensor<string, []>("op_1051_equation_0"), val = tensor<string, []>("bchk,bkhq->bchq")];
            tensor<fp16, [1, 64, 1, 1500]> var_1051_cast_fp16 = einsum(equation = var_1051_equation_0, values = (var_983_cast_fp16_9, var_1029_cast_fp16))[name = tensor<string, []>("op_1051_cast_fp16")];
            tensor<string, []> var_1053_equation_0 = const()[name = tensor<string, []>("op_1053_equation_0"), val = tensor<string, []>("bchk,bkhq->bchq")];
            tensor<fp16, [1, 64, 1, 1500]> var_1053_cast_fp16 = einsum(equation = var_1053_equation_0, values = (var_983_cast_fp16_10, var_1030_cast_fp16))[name = tensor<string, []>("op_1053_cast_fp16")];
            tensor<string, []> var_1055_equation_0 = const()[name = tensor<string, []>("op_1055_equation_0"), val = tensor<string, []>("bchk,bkhq->bchq")];
            tensor<fp16, [1, 64, 1, 1500]> var_1055_cast_fp16 = einsum(equation = var_1055_equation_0, values = (var_983_cast_fp16_11, var_1031_cast_fp16))[name = tensor<string, []>("op_1055_cast_fp16")];
            tensor<bool, []> input_45_interleave_0 = const()[name = tensor<string, []>("input_45_interleave_0"), val = tensor<bool, []>(false)];
            tensor<fp16, [1, 768, 1, 1500]> input_45_cast_fp16 = concat(axis = var_904, interleave = input_45_interleave_0, values = (var_1033_cast_fp16, var_1035_cast_fp16, var_1037_cast_fp16, var_1039_cast_fp16, var_1041_cast_fp16, var_1043_cast_fp16, var_1045_cast_fp16, var_1047_cast_fp16, var_1049_cast_fp16, var_1051_cast_fp16, var_1053_cast_fp16, var_1055_cast_fp16))[name = tensor<string, []>("input_45_cast_fp16")];
            tensor<string, []> var_1064_pad_type_0 = const()[name = tensor<string, []>("op_1064_pad_type_0"), val = tensor<string, []>("valid")];
            tensor<int32, [2]> var_1064_strides_0 = const()[name = tensor<string, []>("op_1064_strides_0"), val = tensor<int32, [2]>([1, 1])];
            tensor<int32, [4]> var_1064_pad_0 = const()[name = tensor<string, []>("op_1064_pad_0"), val = tensor<int32, [4]>([0, 0, 0, 0])];
            tensor<int32, [2]> var_1064_dilations_0 = const()[name = tensor<string, []>("op_1064_dilations_0"), val = tensor<int32, [2]>([1, 1])];
            tensor<int32, []> var_1064_groups_0 = const()[name = tensor<string, []>("op_1064_groups_0"), val = tensor<int32, []>(1)];
            tensor<fp16, [768, 768, 1, 1]> blocks_4_attn_out_weight_to_fp16 = const()[name = tensor<string, []>("blocks_4_attn_out_weight_to_fp16"), val = tensor<fp16, [768, 768, 1, 1]>(BLOBFILE(path = tensor<string, []>("@model_path/weights/weight.bin"), offset = tensor<uint64, []>(66461248)))];
            tensor<fp16, [768]> blocks_4_attn_out_bias_to_fp16 = const()[name = tensor<string, []>("blocks_4_attn_out_bias_to_fp16"), val = tensor<fp16, [768]>(BLOBFILE(path = tensor<string, []>("@model_path/weights/weight.bin"), offset = tensor<uint64, []>(67640960)))];
            tensor<fp16, [1, 768, 1, 1500]> var_1064_cast_fp16 = conv(bias = blocks_4_attn_out_bias_to_fp16, dilations = var_1064_dilations_0, groups = var_1064_groups_0, pad = var_1064_pad_0, pad_type = var_1064_pad_type_0, strides = var_1064_strides_0, weight = blocks_4_attn_out_weight_to_fp16, x = input_45_cast_fp16)[name = tensor<string, []>("op_1064_cast_fp16")];
            tensor<fp16, [1, 768, 1, 1500]> inputs_19_cast_fp16 = add(x = inputs_17_cast_fp16, y = var_1064_cast_fp16)[name = tensor<string, []>("inputs_19_cast_fp16")];
            tensor<int32, [1]> input_47_axes_0 = const()[name = tensor<string, []>("input_47_axes_0"), val = tensor<int32, [1]>([1])];
            tensor<fp16, [768]> input_47_gamma_0_to_fp16 = const()[name = tensor<string, []>("input_47_gamma_0_to_fp16"), val = tensor<fp16, [768]>(BLOBFILE(path = tensor<string, []>("@model_path/weights/weight.bin"), offset = tensor<uint64, []>(67642560)))];
            tensor<fp16, [768]> input_47_beta_0_to_fp16 = const()[name = tensor<string, []>("input_47_beta_0_to_fp16"), val = tensor<fp16, [768]>(BLOBFILE(path = tensor<string, []>("@model_path/weights/weight.bin"), offset = tensor<uint64, []>(67644160)))];
            tensor<fp16, []> var_1074_to_fp16 = const()[name = tensor<string, []>("op_1074_to_fp16"), val = tensor<fp16, []>(0x1.5p-17)];
            tensor<fp16, [1, 768, 1, 1500]> input_47_cast_fp16 = layer_norm(axes = input_47_axes_0, beta = input_47_beta_0_to_fp16, epsilon = var_1074_to_fp16, gamma = input_47_gamma_0_to_fp16, x = inputs_19_cast_fp16)[name = tensor<string, []>("input_47_cast_fp16")];
            tensor<string, []> input_49_pad_type_0 = const()[name = tensor<string, []>("input_49_pad_type_0"), val = tensor<string, []>("valid")];
            tensor<int32, [2]> input_49_strides_0 = const()[name = tensor<string, []>("input_49_strides_0"), val = tensor<int32, [2]>([1, 1])];
            tensor<int32, [4]> input_49_pad_0 = const()[name = tensor<string, []>("input_49_pad_0"), val = tensor<int32, [4]>([0, 0, 0, 0])];
            tensor<int32, [2]> input_49_dilations_0 = const()[name = tensor<string, []>("input_49_dilations_0"), val = tensor<int32, [2]>([1, 1])];
            tensor<int32, []> input_49_groups_0 = const()[name = tensor<string, []>("input_49_groups_0"), val = tensor<int32, []>(1)];
            tensor<fp16, [3072, 768, 1, 1]> blocks_4_mlp_0_weight_to_fp16 = const()[name = tensor<string, []>("blocks_4_mlp_0_weight_to_fp16"), val = tensor<fp16, [3072, 768, 1, 1]>(BLOBFILE(path = tensor<string, []>("@model_path/weights/weight.bin"), offset = tensor<uint64, []>(67645760)))];
            tensor<fp16, [3072]> blocks_4_mlp_0_bias_to_fp16 = const()[name = tensor<string, []>("blocks_4_mlp_0_bias_to_fp16"), val = tensor<fp16, [3072]>(BLOBFILE(path = tensor<string, []>("@model_path/weights/weight.bin"), offset = tensor<uint64, []>(72364416)))];
            tensor<fp16, [1, 3072, 1, 1500]> input_49_cast_fp16 = conv(bias = blocks_4_mlp_0_bias_to_fp16, dilations = input_49_dilations_0, groups = input_49_groups_0, pad = input_49_pad_0, pad_type = input_49_pad_type_0, strides = input_49_strides_0, weight = blocks_4_mlp_0_weight_to_fp16, x = input_47_cast_fp16)[name = tensor<string, []>("input_49_cast_fp16")];
            tensor<string, []> input_51_mode_0 = const()[name = tensor<string, []>("input_51_mode_0"), val = tensor<string, []>("EXACT")];
            tensor<fp16, [1, 3072, 1, 1500]> input_51_cast_fp16 = gelu(mode = input_51_mode_0, x = input_49_cast_fp16)[name = tensor<string, []>("input_51_cast_fp16")];
            tensor<string, []> var_1100_pad_type_0 = const()[name = tensor<string, []>("op_1100_pad_type_0"), val = tensor<string, []>("valid")];
            tensor<int32, [2]> var_1100_strides_0 = const()[name = tensor<string, []>("op_1100_strides_0"), val = tensor<int32, [2]>([1, 1])];
            tensor<int32, [4]> var_1100_pad_0 = const()[name = tensor<string, []>("op_1100_pad_0"), val = tensor<int32, [4]>([0, 0, 0, 0])];
            tensor<int32, [2]> var_1100_dilations_0 = const()[name = tensor<string, []>("op_1100_dilations_0"), val = tensor<int32, [2]>([1, 1])];
            tensor<int32, []> var_1100_groups_0 = const()[name = tensor<string, []>("op_1100_groups_0"), val = tensor<int32, []>(1)];
            tensor<fp16, [768, 3072, 1, 1]> blocks_4_mlp_2_weight_to_fp16 = const()[name = tensor<string, []>("blocks_4_mlp_2_weight_to_fp16"), val = tensor<fp16, [768, 3072, 1, 1]>(BLOBFILE(path = tensor<string, []>("@model_path/weights/weight.bin"), offset = tensor<uint64, []>(72370624)))];
            tensor<fp16, [768]> blocks_4_mlp_2_bias_to_fp16 = const()[name = tensor<string, []>("blocks_4_mlp_2_bias_to_fp16"), val = tensor<fp16, [768]>(BLOBFILE(path = tensor<string, []>("@model_path/weights/weight.bin"), offset = tensor<uint64, []>(77089280)))];
            tensor<fp16, [1, 768, 1, 1500]> var_1100_cast_fp16 = conv(bias = blocks_4_mlp_2_bias_to_fp16, dilations = var_1100_dilations_0, groups = var_1100_groups_0, pad = var_1100_pad_0, pad_type = var_1100_pad_type_0, strides = var_1100_strides_0, weight = blocks_4_mlp_2_weight_to_fp16, x = input_51_cast_fp16)[name = tensor<string, []>("op_1100_cast_fp16")];
            tensor<fp16, [1, 768, 1, 1500]> inputs_21_cast_fp16 = add(x = inputs_19_cast_fp16, y = var_1100_cast_fp16)[name = tensor<string, []>("inputs_21_cast_fp16")];
            tensor<int32, []> var_1109 = const()[name = tensor<string, []>("op_1109"), val = tensor<int32, []>(1)];
            tensor<int32, [1]> input_53_axes_0 = const()[name = tensor<string, []>("input_53_axes_0"), val = tensor<int32, [1]>([1])];
            tensor<fp16, [768]> input_53_gamma_0_to_fp16 = const()[name = tensor<string, []>("input_53_gamma_0_to_fp16"), val = tensor<fp16, [768]>(BLOBFILE(path = tensor<string, []>("@model_path/weights/weight.bin"), offset = tensor<uint64, []>(77090880)))];
            tensor<fp16, [768]> input_53_beta_0_to_fp16 = const()[name = tensor<string, []>("input_53_beta_0_to_fp16"), val = tensor<fp16, [768]>(BLOBFILE(path = tensor<string, []>("@model_path/weights/weight.bin"), offset = tensor<uint64, []>(77092480)))];
            tensor<fp16, []> var_1125_to_fp16 = const()[name = tensor<string, []>("op_1125_to_fp16"), val = tensor<fp16, []>(0x1.5p-17)];
            tensor<fp16, [1, 768, 1, 1500]> input_53_cast_fp16 = layer_norm(axes = input_53_axes_0, beta = input_53_beta_0_to_fp16, epsilon = var_1125_to_fp16, gamma = input_53_gamma_0_to_fp16, x = inputs_21_cast_fp16)[name = tensor<string, []>("input_53_cast_fp16")];
            tensor<string, []> q_11_pad_type_0 = const()[name = tensor<string, []>("q_11_pad_type_0"), val = tensor<string, []>("valid")];
            tensor<int32, [2]> q_11_strides_0 = const()[name = tensor<string, []>("q_11_strides_0"), val = tensor<int32, [2]>([1, 1])];
            tensor<int32, [4]> q_11_pad_0 = const()[name = tensor<string, []>("q_11_pad_0"), val = tensor<int32, [4]>([0, 0, 0, 0])];
            tensor<int32, [2]> q_11_dilations_0 = const()[name = tensor<string, []>("q_11_dilations_0"), val = tensor<int32, [2]>([1, 1])];
            tensor<int32, []> q_11_groups_0 = const()[name = tensor<string, []>("q_11_groups_0"), val = tensor<int32, []>(1)];
            tensor<fp16, [768, 768, 1, 1]> var_1160_weight_0_to_fp16 = const()[name = tensor<string, []>("op_1160_weight_0_to_fp16"), val = tensor<fp16, [768, 768, 1, 1]>(BLOBFILE(path = tensor<string, []>("@model_path/weights/weight.bin"), offset = tensor<uint64, []>(77094080)))];
            tensor<fp16, [768]> var_1160_bias_0_to_fp16 = const()[name = tensor<string, []>("op_1160_bias_0_to_fp16"), val = tensor<fp16, [768]>(BLOBFILE(path = tensor<string, []>("@model_path/weights/weight.bin"), offset = tensor<uint64, []>(78273792)))];
            tensor<fp16, [1, 768, 1, 1500]> var_1160_cast_fp16 = conv(bias = var_1160_bias_0_to_fp16, dilations = q_11_dilations_0, groups = q_11_groups_0, pad = q_11_pad_0, pad_type = q_11_pad_type_0, strides = q_11_strides_0, weight = var_1160_weight_0_to_fp16, x = input_53_cast_fp16)[name = tensor<string, []>("op_1160_cast_fp16")];
            tensor<string, []> k_11_pad_type_0 = const()[name = tensor<string, []>("k_11_pad_type_0"), val = tensor<string, []>("valid")];
            tensor<int32, [2]> k_11_strides_0 = const()[name = tensor<string, []>("k_11_strides_0"), val = tensor<int32, [2]>([1, 1])];
            tensor<int32, [4]> k_11_pad_0 = const()[name = tensor<string, []>("k_11_pad_0"), val = tensor<int32, [4]>([0, 0, 0, 0])];
            tensor<int32, [2]> k_11_dilations_0 = const()[name = tensor<string, []>("k_11_dilations_0"), val = tensor<int32, [2]>([1, 1])];
            tensor<int32, []> k_11_groups_0 = const()[name = tensor<string, []>("k_11_groups_0"), val = tensor<int32, []>(1)];
            tensor<fp16, [768, 768, 1, 1]> blocks_5_attn_key_weight_to_fp16 = const()[name = tensor<string, []>("blocks_5_attn_key_weight_to_fp16"), val = tensor<fp16, [768, 768, 1, 1]>(BLOBFILE(path = tensor<string, []>("@model_path/weights/weight.bin"), offset = tensor<uint64, []>(78275392)))];
            tensor<fp16, [1, 768, 1, 1500]> k_11_cast_fp16 = conv(dilations = k_11_dilations_0, groups = k_11_groups_0, pad = k_11_pad_0, pad_type = k_11_pad_type_0, strides = k_11_strides_0, weight = blocks_5_attn_key_weight_to_fp16, x = input_53_cast_fp16)[name = tensor<string, []>("k_11_cast_fp16")];
            tensor<string, []> var_1158_pad_type_0 = const()[name = tensor<string, []>("op_1158_pad_type_0"), val = tensor<string, []>("valid")];
            tensor<int32, [2]> var_1158_strides_0 = const()[name = tensor<string, []>("op_1158_strides_0"), val = tensor<int32, [2]>([1, 1])];
            tensor<int32, [4]> var_1158_pad_0 = const()[name = tensor<string, []>("op_1158_pad_0"), val = tensor<int32, [4]>([0, 0, 0, 0])];
            tensor<int32, [2]> var_1158_dilations_0 = const()[name = tensor<string, []>("op_1158_dilations_0"), val = tensor<int32, [2]>([1, 1])];
            tensor<int32, []> var_1158_groups_0 = const()[name = tensor<string, []>("op_1158_groups_0"), val = tensor<int32, []>(1)];
            tensor<fp16, [768, 768, 1, 1]> blocks_5_attn_value_weight_to_fp16 = const()[name = tensor<string, []>("blocks_5_attn_value_weight_to_fp16"), val = tensor<fp16, [768, 768, 1, 1]>(BLOBFILE(path = tensor<string, []>("@model_path/weights/weight.bin"), offset = tensor<uint64, []>(79455104)))];
            tensor<fp16, [768]> blocks_5_attn_value_bias_to_fp16 = const()[name = tensor<string, []>("blocks_5_attn_value_bias_to_fp16"), val = tensor<fp16, [768]>(BLOBFILE(path = tensor<string, []>("@model_path/weights/weight.bin"), offset = tensor<uint64, []>(80634816)))];
            tensor<fp16, [1, 768, 1, 1500]> var_1158_cast_fp16 = conv(bias = blocks_5_attn_value_bias_to_fp16, dilations = var_1158_dilations_0, groups = var_1158_groups_0, pad = var_1158_pad_0, pad_type = var_1158_pad_type_0, strides = var_1158_strides_0, weight = blocks_5_attn_value_weight_to_fp16, x = input_53_cast_fp16)[name = tensor<string, []>("op_1158_cast_fp16")];
            tensor<int32, [12]> tile_15 = const()[name = tensor<string, []>("tile_15"), val = tensor<int32, [12]>([64, 64, 64, 64, 64, 64, 64, 64, 64, 64, 64, 64])];
            tensor<int32, []> var_1161_axis_0 = const()[name = tensor<string, []>("op_1161_axis_0"), val = tensor<int32, []>(1)];
            tensor<fp16, [1, 64, 1, 1500]> var_1161_cast_fp16_0, tensor<fp16, [1, 64, 1, 1500]> var_1161_cast_fp16_1, tensor<fp16, [1, 64, 1, 1500]> var_1161_cast_fp16_2, tensor<fp16, [1, 64, 1, 1500]> var_1161_cast_fp16_3, tensor<fp16, [1, 64, 1, 1500]> var_1161_cast_fp16_4, tensor<fp16, [1, 64, 1, 1500]> var_1161_cast_fp16_5, tensor<fp16, [1, 64, 1, 1500]> var_1161_cast_fp16_6, tensor<fp16, [1, 64, 1, 1500]> var_1161_cast_fp16_7, tensor<fp16, [1, 64, 1, 1500]> var_1161_cast_fp16_8, tensor<fp16, [1, 64, 1, 1500]> var_1161_cast_fp16_9, tensor<fp16, [1, 64, 1, 1500]> var_1161_cast_fp16_10, tensor<fp16, [1, 64, 1, 1500]> var_1161_cast_fp16_11 = split(axis = var_1161_axis_0, split_sizes = tile_15, x = var_1160_cast_fp16)[name = tensor<string, []>("op_1161_cast_fp16")];
            tensor<int32, [4]> var_1174_perm_0 = const()[name = tensor<string, []>("op_1174_perm_0"), val = tensor<int32, [4]>([0, 3, 2, 1])];
            tensor<int32, [12]> tile_16 = const()[name = tensor<string, []>("tile_16"), val = tensor<int32, [12]>([64, 64, 64, 64, 64, 64, 64, 64, 64, 64, 64, 64])];
            tensor<int32, []> var_1175_axis_0 = const()[name = tensor<string, []>("op_1175_axis_0"), val = tensor<int32, []>(3)];
            tensor<fp16, [1, 1500, 1, 768]> var_1174_cast_fp16 = transpose(perm = var_1174_perm_0, x = k_11_cast_fp16)[name = tensor<string, []>("transpose_7")];
            tensor<fp16, [1, 1500, 1, 64]> var_1175_cast_fp16_0, tensor<fp16, [1, 1500, 1, 64]> var_1175_cast_fp16_1, tensor<fp16, [1, 1500, 1, 64]> var_1175_cast_fp16_2, tensor<fp16, [1, 1500, 1, 64]> var_1175_cast_fp16_3, tensor<fp16, [1, 1500, 1, 64]> var_1175_cast_fp16_4, tensor<fp16, [1, 1500, 1, 64]> var_1175_cast_fp16_5, tensor<fp16, [1, 1500, 1, 64]> var_1175_cast_fp16_6, tensor<fp16, [1, 1500, 1, 64]> var_1175_cast_fp16_7, tensor<fp16, [1, 1500, 1, 64]> var_1175_cast_fp16_8, tensor<fp16, [1, 1500, 1, 64]> var_1175_cast_fp16_9, tensor<fp16, [1, 1500, 1, 64]> var_1175_cast_fp16_10, tensor<fp16, [1, 1500, 1, 64]> var_1175_cast_fp16_11 = split(axis = var_1175_axis_0, split_sizes = tile_16, x = var_1174_cast_fp16)[name = tensor<string, []>("op_1175_cast_fp16")];
            tensor<int32, [12]> tile_17 = const()[name = tensor<string, []>("tile_17"), val = tensor<int32, [12]>([64, 64, 64, 64, 64, 64, 64, 64, 64, 64, 64, 64])];
            tensor<int32, []> var_1188_axis_0 = const()[name = tensor<string, []>("op_1188_axis_0"), val = tensor<int32, []>(1)];
            tensor<fp16, [1, 64, 1, 1500]> var_1188_cast_fp16_0, tensor<fp16, [1, 64, 1, 1500]> var_1188_cast_fp16_1, tensor<fp16, [1, 64, 1, 1500]> var_1188_cast_fp16_2, tensor<fp16, [1, 64, 1, 1500]> var_1188_cast_fp16_3, tensor<fp16, [1, 64, 1, 1500]> var_1188_cast_fp16_4, tensor<fp16, [1, 64, 1, 1500]> var_1188_cast_fp16_5, tensor<fp16, [1, 64, 1, 1500]> var_1188_cast_fp16_6, tensor<fp16, [1, 64, 1, 1500]> var_1188_cast_fp16_7, tensor<fp16, [1, 64, 1, 1500]> var_1188_cast_fp16_8, tensor<fp16, [1, 64, 1, 1500]> var_1188_cast_fp16_9, tensor<fp16, [1, 64, 1, 1500]> var_1188_cast_fp16_10, tensor<fp16, [1, 64, 1, 1500]> var_1188_cast_fp16_11 = split(axis = var_1188_axis_0, split_sizes = tile_17, x = var_1158_cast_fp16)[name = tensor<string, []>("op_1188_cast_fp16")];
            tensor<string, []> aw_121_equation_0 = const()[name = tensor<string, []>("aw_121_equation_0"), val = tensor<string, []>("bkhc,bchq->bkhq")];
            tensor<fp16, [1, 1500, 1, 1500]> aw_121_cast_fp16 = einsum(equation = aw_121_equation_0, values = (var_1175_cast_fp16_0, var_1161_cast_fp16_0))[name = tensor<string, []>("aw_121_cast_fp16")];
            tensor<string, []> aw_123_equation_0 = const()[name = tensor<string, []>("aw_123_equation_0"), val = tensor<string, []>("bkhc,bchq->bkhq")];
            tensor<fp16, [1, 1500, 1, 1500]> aw_123_cast_fp16 = einsum(equation = aw_123_equation_0, values = (var_1175_cast_fp16_1, var_1161_cast_fp16_1))[name = tensor<string, []>("aw_123_cast_fp16")];
            tensor<string, []> aw_125_equation_0 = const()[name = tensor<string, []>("aw_125_equation_0"), val = tensor<string, []>("bkhc,bchq->bkhq")];
            tensor<fp16, [1, 1500, 1, 1500]> aw_125_cast_fp16 = einsum(equation = aw_125_equation_0, values = (var_1175_cast_fp16_2, var_1161_cast_fp16_2))[name = tensor<string, []>("aw_125_cast_fp16")];
            tensor<string, []> aw_127_equation_0 = const()[name = tensor<string, []>("aw_127_equation_0"), val = tensor<string, []>("bkhc,bchq->bkhq")];
            tensor<fp16, [1, 1500, 1, 1500]> aw_127_cast_fp16 = einsum(equation = aw_127_equation_0, values = (var_1175_cast_fp16_3, var_1161_cast_fp16_3))[name = tensor<string, []>("aw_127_cast_fp16")];
            tensor<string, []> aw_129_equation_0 = const()[name = tensor<string, []>("aw_129_equation_0"), val = tensor<string, []>("bkhc,bchq->bkhq")];
            tensor<fp16, [1, 1500, 1, 1500]> aw_129_cast_fp16 = einsum(equation = aw_129_equation_0, values = (var_1175_cast_fp16_4, var_1161_cast_fp16_4))[name = tensor<string, []>("aw_129_cast_fp16")];
            tensor<string, []> aw_131_equation_0 = const()[name = tensor<string, []>("aw_131_equation_0"), val = tensor<string, []>("bkhc,bchq->bkhq")];
            tensor<fp16, [1, 1500, 1, 1500]> aw_131_cast_fp16 = einsum(equation = aw_131_equation_0, values = (var_1175_cast_fp16_5, var_1161_cast_fp16_5))[name = tensor<string, []>("aw_131_cast_fp16")];
            tensor<string, []> aw_133_equation_0 = const()[name = tensor<string, []>("aw_133_equation_0"), val = tensor<string, []>("bkhc,bchq->bkhq")];
            tensor<fp16, [1, 1500, 1, 1500]> aw_133_cast_fp16 = einsum(equation = aw_133_equation_0, values = (var_1175_cast_fp16_6, var_1161_cast_fp16_6))[name = tensor<string, []>("aw_133_cast_fp16")];
            tensor<string, []> aw_135_equation_0 = const()[name = tensor<string, []>("aw_135_equation_0"), val = tensor<string, []>("bkhc,bchq->bkhq")];
            tensor<fp16, [1, 1500, 1, 1500]> aw_135_cast_fp16 = einsum(equation = aw_135_equation_0, values = (var_1175_cast_fp16_7, var_1161_cast_fp16_7))[name = tensor<string, []>("aw_135_cast_fp16")];
…
            tensor<int32, []> var_2186_axis_0 = const()[name = tensor<string, []>("op_2186_axis_0"), val = tensor<int32, []>(1)];
            tensor<fp16, [1, 64, 1, 1500]> var_2186_cast_fp16_0, tensor<fp16, [1, 64, 1, 1500]> var_2186_cast_fp16_1, tensor<fp16, [1, 64, 1, 1500]> var_2186_cast_fp16_2, tensor<fp16, [1, 64, 1, 1500]> var_2186_cast_fp16_3, tensor<fp16, [1, 64, 1, 1500]> var_2186_cast_fp16_4, tensor<fp16, [1, 64, 1, 1500]> var_2186_cast_fp16_5, tensor<fp16, [1, 64, 1, 1500]> var_2186_cast_fp16_6, tensor<fp16, [1, 64, 1, 1500]> var_2186_cast_fp16_7, tensor<fp16, [1, 64, 1, 1500]> var_2186_cast_fp16_8, tensor<fp16, [1, 64, 1, 1500]> var_2186_cast_fp16_9, tensor<fp16, [1, 64, 1, 1500]> var_2186_cast_fp16_10, tensor<fp16, [1, 64, 1, 1500]> var_2186_cast_fp16_11 = split(axis = var_2186_axis_0, split_sizes = tile_30, x = var_2185_cast_fp16)[name = tensor<string, []>("op_2186_cast_fp16")];
            tensor<int32, [4]> var_2199_perm_0 = const()[name = tensor<string, []>("op_2199_perm_0"), val = tensor<int32, [4]>([0, 3, 2, 1])];
            tensor<int32, [12]> tile_31 = const()[name = tensor<string, []>("tile_31"), val = tensor<int32, [12]>([64, 64, 64, 64, 64, 64, 64, 64, 64, 64, 64, 64])];
            tensor<int32, []> var_2200_axis_0 = const()[name = tensor<string, []>("op_2200_axis_0"), val = tensor<int32, []>(3)];
            tensor<fp16, [1, 1500, 1, 768]> var_2199_cast_fp16 = transpose(perm = var_2199_perm_0, x = k_21_cast_fp16)[name = tensor<string, []>("transpose_2")];
            tensor<fp16, [1, 1500, 1, 64]> var_2200_cast_fp16_0, tensor<fp16, [1, 1500, 1, 64]> var_2200_cast_fp16_1, tensor<fp16, [1, 1500, 1, 64]> var_2200_cast_fp16_2, tensor<fp16, [1, 1500, 1, 64]> var_2200_cast_fp16_3, tensor<fp16, [1, 1500, 1, 64]> var_2200_cast_fp16_4, tensor<fp16, [1, 1500, 1, 64]> var_2200_cast_fp16_5, tensor<fp16, [1, 1500, 1, 64]> var_2200_cast_fp16_6, tensor<fp16, [1, 1500, 1, 64]> var_2200_cast_fp16_7, tensor<fp16, [1, 1500, 1, 64]> var_2200_cast_fp16_8, tensor<fp16, [1, 1500, 1, 64]> var_2200_cast_fp16_9, tensor<fp16, [1, 1500, 1, 64]> var_2200_cast_fp16_10, tensor<fp16, [1, 1500, 1, 64]> var_2200_cast_fp16_11 = split(axis = var_2200_axis_0, split_sizes = tile_31, x = var_2199_cast_fp16)[name = tensor<string, []>("op_2200_cast_fp16")];
            tensor<int32, [12]> tile_32 = const()[name = tensor<string, []>("tile_32"), val = tensor<int32, [12]>([64, 64, 64, 64, 64, 64, 64, 64, 64, 64, 64, 64])];
            tensor<int32, []> var_2213_axis_0 = const()[name = tensor<string, []>("op_2213_axis_0"), val = tensor<int32, []>(1)];
            tensor<fp16, [1, 64, 1, 1500]> var_2213_cast_fp16_0, tensor<fp16, [1, 64, 1, 1500]> var_2213_cast_fp16_1, tensor<fp16, [1, 64, 1, 1500]> var_2213_cast_fp16_2, tensor<fp16, [1, 64, 1, 1500]> var_2213_cast_fp16_3, tensor<fp16, [1, 64, 1, 1500]> var_2213_cast_fp16_4, tensor<fp16, [1, 64, 1, 1500]> var_2213_cast_fp16_5, tensor<fp16, [1, 64, 1, 1500]> var_2213_cast_fp16_6, tensor<fp16, [1, 64, 1, 1500]> var_2213_cast_fp16_7, tensor<fp16, [1, 64, 1, 1500]> var_2213_cast_fp16_8, tensor<fp16, [1, 64, 1, 1500]> var_2213_cast_fp16_9, tensor<fp16, [1, 64, 1, 1500]> var_2213_cast_fp16_10, tensor<fp16, [1, 64, 1, 1500]> var_2213_cast_fp16_11 = split(axis = var_2213_axis_0, split_sizes = tile_32, x = var_2183_cast_fp16)[name = tensor<string, []>("op_2213_cast_fp16")];
            tensor<string, []> aw_241_equation_0 = const()[name = tensor<string, []>("aw_241_equation_0"), val = tensor<string, []>("bkhc,bchq->bkhq")];
            tensor<fp16, [1, 1500, 1, 1500]> aw_241_cast_fp16 = einsum(equation = aw_241_equation_0, values = (var_2200_cast_fp16_0, var_2186_cast_fp16_0))[name = tensor<string, []>("aw_241_cast_fp16")];
            tensor<string, []> aw_243_equation_0 = const()[name = tensor<string, []>("aw_243_equation_0"), val = tensor<string, []>("bkhc,bchq->bkhq")];
            tensor<fp16, [1, 1500, 1, 1500]> aw_243_cast_fp16 = einsum(equation = aw_243_equation_0, values = (var_2200_cast_fp16_1, var_2186_cast_fp16_1))[name = tensor<string, []>("aw_243_cast_fp16")];
            tensor<string, []> aw_245_equation_0 = const()[name = tensor<string, []>("aw_245_equation_0"), val = tensor<string, []>("bkhc,bchq->bkhq")];
            tensor<fp16, [1, 1500, 1, 1500]> aw_245_cast_fp16 = einsum(equation = aw_245_equation_0, values = (var_2200_cast_fp16_2, var_2186_cast_fp16_2))[name = tensor<string, []>("aw_245_cast_fp16")];
            tensor<string, []> aw_247_equation_0 = const()[name = tensor<string, []>("aw_247_equation_0"), val = tensor<string, []>("bkhc,bchq->bkhq")];
            tensor<fp16, [1, 1500, 1, 1500]> aw_247_cast_fp16 = einsum(equation = aw_247_equation_0, values = (var_2200_cast_fp16_3, var_2186_cast_fp16_3))[name = tensor<string, []>("aw_247_cast_fp16")];
            tensor<string, []> aw_249_equation_0 = const()[name = tensor<string, []>("aw_249_equation_0"), val = tensor<string, []>("bkhc,bchq->bkhq")];
            tensor<fp16, [1, 1500, 1, 1500]> aw_249_cast_fp16 = einsum(equation = aw_249_equation_0, values = (var_2200_cast_fp16_4, var_2186_cast_fp16_4))[name = tensor<string, []>("aw_249_cast_fp16")];
            tensor<string, []> aw_251_equation_0 = const()[name = tensor<string, []>("aw_251_equation_0"), val = tensor<string, []>("bkhc,bchq->bkhq")];
            tensor<fp16, [1, 1500, 1, 1500]> aw_251_cast_fp16 = einsum(equation = aw_251_equation_0, values = (var_2200_cast_fp16_5, var_2186_cast_fp16_5))[name = tensor<string, []>("aw_251_cast_fp16")];
            tensor<string, []> aw_253_equation_0 = const()[name = tensor<string, []>("aw_253_equation_0"), val = tensor<string, []>("bkhc,bchq->bkhq")];
            tensor<fp16, [1, 1500, 1, 1500]> aw_253_cast_fp16 = einsum(equation = aw_253_equation_0, values = (var_2200_cast_fp16_6, var_2186_cast_fp16_6))[name = tensor<string, []>("aw_253_cast_fp16")];
            tensor<string, []> aw_255_equation_0 = const()[name = tensor<string, []>("aw_255_equation_0"), val = tensor<string, []>("bkhc,bchq->bkhq")];
            tensor<fp16, [1, 1500, 1, 1500]> aw_255_cast_fp16 = einsum(equation = aw_255_equation_0, values = (var_2200_cast_fp16_7, var_2186_cast_fp16_7))[name = tensor<string, []>("aw_255_cast_fp16")];
            tensor<string, []> aw_257_equation_0 = const()[name = tensor<string, []>("aw_257_equation_0"), val = tensor<string, []>("bkhc,bchq->bkhq")];
            tensor<fp16, [1, 1500, 1, 1500]> aw_257_cast_fp16 = einsum(equation = aw_257_equation_0, values = (var_2200_cast_fp16_8, var_2186_cast_fp16_8))[name = tensor<string, []>("aw_257_cast_fp16")];
            tensor<string, []> aw_259_equation_0 = const()[name = tensor<string, []>("aw_259_equation_0"), val = tensor<string, []>("bkhc,bchq->bkhq")];
            tensor<fp16, [1, 1500, 1, 1500]> aw_259_cast_fp16 = einsum(equation = aw_259_equation_0, values = (var_2200_cast_fp16_9, var_2186_cast_fp16_9))[name = tensor<string, []>("aw_259_cast_fp16")];
            tensor<string, []> aw_261_equation_0 = const()[name = tensor<string, []>("aw_261_equation_0"), val = tensor<string, []>("bkhc,bchq->bkhq")];
            tensor<fp16, [1, 1500, 1, 1500]> aw_261_cast_fp16 = einsum(equation = aw_261_equation_0, values = (var_2200_cast_fp16_10, var_2186_cast_fp16_10))[name = tensor<string, []>("aw_261_cast_fp16")];
            tensor<string, []> aw_263_equation_0 = const()[name = tensor<string, []>("aw_263_equation_0"), val = tensor<string, []>("bkhc,bchq->bkhq")];
            tensor<fp16, [1, 1500, 1, 1500]> aw_263_cast_fp16 = einsum(equation = aw_263_equation_0, values = (var_2200_cast_fp16_11, var_2186_cast_fp16_11))[name = tensor<string, []>("aw_263_cast_fp16")];
            tensor<fp16, [1, 1500, 1, 1500]> var_2250_cast_fp16 = softmax(axis = var_2134, x = aw_241_cast_fp16)[name = tensor<string, []>("op_2250_cast_fp16")];
            tensor<fp16, [1, 1500, 1, 1500]> var_2251_cast_fp16 = softmax(axis = var_2134, x = aw_243_cast_fp16)[name = tensor<string, []>("op_2251_cast_fp16")];
            tensor<fp16, [1, 1500, 1, 1500]> var_2252_cast_fp16 = softmax(axis = var_2134, x = aw_245_cast_fp16)[name = tensor<string, []>("op_2252_cast_fp16")];
            tensor<fp16, [1, 1500, 1, 1500]> var_2253_cast_fp16 = softmax(axis = var_2134, x = aw_247_cast_fp16)[name = tensor<string, []>("op_2253_cast_fp16")];
            tensor<fp16, [1, 1500, 1, 1500]> var_2254_cast_fp16 = softmax(axis = var_2134, x = aw_249_cast_fp16)[name = tensor<string, []>("op_2254_cast_fp16")];
            tensor<fp16, [1, 1500, 1, 1500]> var_2255_cast_fp16 = softmax(axis = var_2134, x = aw_251_cast_fp16)[name = tensor<string, []>("op_2255_cast_fp16")];
            tensor<fp16, [1, 1500, 1, 1500]> var_2256_cast_fp16 = softmax(axis = var_2134, x = aw_253_cast_fp16)[name = tensor<string, []>("op_2256_cast_fp16")];
            tensor<fp16, [1, 1500, 1, 1500]> var_2257_cast_fp16 = softmax(axis = var_2134, x = aw_255_cast_fp16)[name = tensor<string, []>("op_2257_cast_fp16")];
            tensor<fp16, [1, 1500, 1, 1500]> var_2258_cast_fp16 = softmax(axis = var_2134, x = aw_257_cast_fp16)[name = tensor<string, []>("op_2258_cast_fp16")];
            tensor<fp16, [1, 1500, 1, 1500]> var_2259_cast_fp16 = softmax(axis = var_2134, x = aw_259_cast_fp16)[name = tensor<string, []>("op_2259_cast_fp16")];
            tensor<fp16, [1, 1500, 1, 1500]> var_2260_cast_fp16 = softmax(axis = var_2134, x = aw_261_cast_fp16)[name = tensor<string, []>("op_2260_cast_fp16")];
            tensor<fp16, [1, 1500, 1, 1500]> var_2261_cast_fp16 = softmax(axis = var_2134, x = aw_263_cast_fp16)[name = tensor<string, []>("op_2261_cast_fp16")];
            tensor<string, []> var_2263_equation_0 = const()[name = tensor<string, []>("op_2263_equation_0"), val = tensor<string, []>("bchk,bkhq->bchq")];
            tensor<fp16, [1, 64, 1, 1500]> var_2263_cast_fp16 = einsum(equation = var_2263_equation_0, values = (var_2213_cast_fp16_0, var_2250_cast_fp16))[name = tensor<string, []>("op_2263_cast_fp16")];
            tensor<string, []> var_2265_equation_0 = const()[name = tensor<string, []>("op_2265_equation_0"), val = tensor<string, []>("bchk,bkhq->bchq")];
            tensor<fp16, [1, 64, 1, 1500]> var_2265_cast_fp16 = einsum(equation = var_2265_equation_0, values = (var_2213_cast_fp16_1, var_2251_cast_fp16))[name = tensor<string, []>("op_2265_cast_fp16")];
            tensor<string, []> var_2267_equation_0 = const()[name = tensor<string, []>("op_2267_equation_0"), val = tensor<string, []>("bchk,bkhq->bchq")];
            tensor<fp16, [1, 64, 1, 1500]> var_2267_cast_fp16 = einsum(equation = var_2267_equation_0, values = (var_2213_cast_fp16_2, var_2252_cast_fp16))[name = tensor<string, []>("op_2267_cast_fp16")];
            tensor<string, []> var_2269_equation_0 = const()[name = tensor<string, []>("op_2269_equation_0"), val = tensor<string, []>("bchk,bkhq->bchq")];
            tensor<fp16, [1, 64, 1, 1500]> var_2269_cast_fp16 = einsum(equation = var_2269_equation_0, values = (var_2213_cast_fp16_3, var_2253_cast_fp16))[name = tensor<string, []>("op_2269_cast_fp16")];
            tensor<string, []> var_2271_equation_0 = const()[name = tensor<string, []>("op_2271_equation_0"), val = tensor<string, []>("bchk,bkhq->bchq")];
            tensor<fp16, [1, 64, 1, 1500]> var_2271_cast_fp16 = einsum(equation = var_2271_equation_0, values = (var_2213_cast_fp16_4, var_2254_cast_fp16))[name = tensor<string, []>("op_2271_cast_fp16")];
            tensor<string, []> var_2273_equation_0 = const()[name = tensor<string, []>("op_2273_equation_0"), val = tensor<string, []>("bchk,bkhq->bchq")];
            tensor<fp16, [1, 64, 1, 1500]> var_2273_cast_fp16 = einsum(equation = var_2273_equation_0, values = (var_2213_cast_fp16_5, var_2255_cast_fp16))[name = tensor<string, []>("op_2273_cast_fp16")];
            tensor<string, []> var_2275_equation_0 = const()[name = tensor<string, []>("op_2275_equation_0"), val = tensor<string, []>("bchk,bkhq->bchq")];
            tensor<fp16, [1, 64, 1, 1500]> var_2275_cast_fp16 = einsum(equation = var_2275_equation_0, values = (var_2213_cast_fp16_6, var_2256_cast_fp16))[name = tensor<string, []>("op_2275_cast_fp16")];
            tensor<string, []> var_2277_equation_0 = const()[name = tensor<string, []>("op_2277_equation_0"), val = tensor<string, []>("bchk,bkhq->bchq")];
            tensor<fp16, [1, 64, 1, 1500]> var_2277_cast_fp16 = einsum(equation = var_2277_equation_0, values = (var_2213_cast_fp16_7, var_2257_cast_fp16))[name = tensor<string, []>("op_2277_cast_fp16")];
            tensor<string, []> var_2279_equation_0 = const()[name = tensor<string, []>("op_2279_equation_0"), val = tensor<string, []>("bchk,bkhq->bchq")];
            tensor<fp16, [1, 64, 1, 1500]> var_2279_cast_fp16 = einsum(equation = var_2279_equation_0, values = (var_2213_cast_fp16_8, var_2258_cast_fp16))[name = tensor<string, []>("op_2279_cast_fp16")];
            tensor<string, []> var_2281_equation_0 = const()[name = tensor<string, []>("op_2281_equation_0"), val = tensor<string, []>("bchk,bkhq->bchq")];
            tensor<fp16, [1, 64, 1, 1500]> var_2281_cast_fp16 = einsum(equation = var_2281_equation_0, values = (var_2213_cast_fp16_9, var_2259_cast_fp16))[name = tensor<string, []>("op_2281_cast_fp16")];
            tensor<string, []> var_2283_equation_0 = const()[name = tensor<string, []>("op_2283_equation_0"), val = tensor<string, []>("bchk,bkhq->bchq")];
            tensor<fp16, [1, 64, 1, 1500]> var_2283_cast_fp16 = einsum(equation = var_2283_equation_0, values = (var_2213_cast_fp16_10, var_2260_cast_fp16))[name = tensor<string, []>("op_2283_cast_fp16")];
            tensor<string, []> var_2285_equation_0 = const()[name = tensor<string, []>("op_2285_equation_0"), val = tensor<string, []>("bchk,bkhq->bchq")];
            tensor<fp16, [1, 64, 1, 1500]> var_2285_cast_fp16 = einsum(equation = var_2285_equation_0, values = (var_2213_cast_fp16_11, var_2261_cast_fp16))[name = tensor<string, []>("op_2285_cast_fp16")];
            tensor<bool, []> input_105_interleave_0 = const()[name = tensor<string, []>("input_105_interleave_0"), val = tensor<bool, []>(false)];
            tensor<fp16, [1, 768, 1, 1500]> input_105_cast_fp16 = concat(axis = var_2134, interleave = input_105_interleave_0, values = (var_2263_cast_fp16, var_2265_cast_fp16, var_2267_cast_fp16, var_2269_cast_fp16, var_2271_cast_fp16, var_2273_cast_fp16, var_2275_cast_fp16, var_2277_cast_fp16, var_2279_cast_fp16, var_2281_cast_fp16, var_2283_cast_fp16, var_2285_cast_fp16))[name = tensor<string, []>("input_105_cast_fp16")];
            tensor<string, []> var_2294_pad_type_0 = const()[name = tensor<string, []>("op_2294_pad_type_0"), val = tensor<string, []>("valid")];
            tensor<int32, [2]> var_2294_strides_0 = const()[name = tensor<string, []>("op_2294_strides_0"), val = tensor<int32, [2]>([1, 1])];
            tensor<int32, [4]> var_2294_pad_0 = const()[name = tensor<string, []>("op_2294_pad_0"), val = tensor<int32, [4]>([0, 0, 0, 0])];
            tensor<int32, [2]> var_2294_dilations_0 = const()[name = tensor<string, []>("op_2294_dilations_0"), val = tensor<int32, [2]>([1, 1])];
            tensor<int32, []> var_2294_groups_0 = const()[name = tensor<string, []>("op_2294_groups_0"), val = tensor<int32, []>(1)];
            tensor<fp16, [768, 768, 1, 1]> blocks_10_attn_out_weight_to_fp16 = const()[name = tensor<string, []>("blocks_10_attn_out_weight_to_fp16"), val = tensor<fp16, [768, 768, 1, 1]>(BLOBFILE(path = tensor<string, []>("@model_path/weights/weight.bin"), offset = tensor<uint64, []>(151512256)))];
            tensor<fp16, [768]> blocks_10_attn_out_bias_to_fp16 = const()[name = tensor<string, []>("blocks_10_attn_out_bias_to_fp16"), val = tensor<fp16, [768]>(BLOBFILE(path = tensor<string, []>("@model_path/weights/weight.bin"), offset = tensor<uint64, []>(152691968)))];
            tensor<fp16, [1, 768, 1, 1500]> var_2294_cast_fp16 = conv(bias = blocks_10_attn_out_bias_to_fp16, dilations = var_2294_dilations_0, groups = var_2294_groups_0, pad = var_2294_pad_0, pad_type = var_2294_pad_type_0, strides = var_2294_strides_0, weight = blocks_10_attn_out_weight_to_fp16, x = input_105_cast_fp16)[name = tensor<string, []>("op_2294_cast_fp16")];
            tensor<fp16, [1, 768, 1, 1500]> inputs_43_cast_fp16 = add(x = inputs_41_cast_fp16, y = var_2294_cast_fp16)[name = tensor<string, []>("inputs_43_cast_fp16")];
            tensor<int32, [1]> input_107_axes_0 = const()[name = tensor<string, []>("input_107_axes_0"), val = tensor<int32, [1]>([1])];
            tensor<fp16, [768]> input_107_gamma_0_to_fp16 = const()[name = tensor<string, []>("input_107_gamma_0_to_fp16"), val = tensor<fp16, [768]>(BLOBFILE(path = tensor<string, []>("@model_path/weights/weight.bin"), offset = tensor<uint64, []>(152693568)))];
            tensor<fp16, [768]> input_107_beta_0_to_fp16 = const()[name = tensor<string, []>("input_107_beta_0_to_fp16"), val = tensor<fp16, [768]>(BLOBFILE(path = tensor<string, []>("@model_path/weights/weight.bin"), offset = tensor<uint64, []>(152695168)))];
            tensor<fp16, []> var_2304_to_fp16 = const()[name = tensor<string, []>("op_2304_to_fp16"), val = tensor<fp16, []>(0x1.5p-17)];
            tensor<fp16, [1, 768, 1, 1500]> input_107_cast_fp16 = layer_norm(axes = input_107_axes_0, beta = input_107_beta_0_to_fp16, epsilon = var_2304_to_fp16, gamma = input_107_gamma_0_to_fp16, x = inputs_43_cast_fp16)[name = tensor<string, []>("input_107_cast_fp16")];
            tensor<string, []> input_109_pad_type_0 = const()[name = tensor<string, []>("input_109_pad_type_0"), val = tensor<string, []>("valid")];
            tensor<int32, [2]> input_109_strides_0 = const()[name = tensor<string, []>("input_109_strides_0"), val = tensor<int32, [2]>([1, 1])];
            tensor<int32, [4]> input_109_pad_0 = const()[name = tensor<string, []>("input_109_pad_0"), val = tensor<int32, [4]>([0, 0, 0, 0])];
            tensor<int32, [2]> input_109_dilations_0 = const()[name = tensor<string, []>("input_109_dilations_0"), val = tensor<int32, [2]>([1, 1])];
            tensor<int32, []> input_109_groups_0 = const()[name = tensor<string, []>("input_109_groups_0"), val = tensor<int32, []>(1)];
            tensor<fp16, [3072, 768, 1, 1]> blocks_10_mlp_0_weight_to_fp16 = const()[name = tensor<string, []>("blocks_10_mlp_0_weight_to_fp16"), val = tensor<fp16, [3072, 768, 1, 1]>(BLOBFILE(path = tensor<string, []>("@model_path/weights/weight.bin"), offset = tensor<uint64, []>(152696768)))];
            tensor<fp16, [3072]> blocks_10_mlp_0_bias_to_fp16 = const()[name = tensor<string, []>("blocks_10_mlp_0_bias_to_fp16"), val = tensor<fp16, [3072]>(BLOBFILE(path = tensor<string, []>("@model_path/weights/weight.bin"), offset = tensor<uint64, []>(157415424)))];
            tensor<fp16, [1, 3072, 1, 1500]> input_109_cast_fp16 = conv(bias = blocks_10_mlp_0_bias_to_fp16, dilations = input_109_dilations_0, groups = input_109_groups_0, pad = input_109_pad_0, pad_type = input_109_pad_type_0, strides = input_109_strides_0, weight = blocks_10_mlp_0_weight_to_fp16, x = input_107_cast_fp16)[name = tensor<string, []>("input_109_cast_fp16")];
            tensor<string, []> input_111_mode_0 = const()[name = tensor<string, []>("input_111_mode_0"), val = tensor<string, []>("EXACT")];
            tensor<fp16, [1, 3072, 1, 1500]> input_111_cast_fp16 = gelu(mode = input_111_mode_0, x = input_109_cast_fp16)[name = tensor<string, []>("input_111_cast_fp16")];
            tensor<string, []> var_2330_pad_type_0 = const()[name = tensor<string, []>("op_2330_pad_type_0"), val = tensor<string, []>("valid")];
            tensor<int32, [2]> var_2330_strides_0 = const()[name = tensor<string, []>("op_2330_strides_0"), val = tensor<int32, [2]>([1, 1])];
            tensor<int32, [4]> var_2330_pad_0 = const()[name = tensor<string, []>("op_2330_pad_0"), val = tensor<int32, [4]>([0, 0, 0, 0])];
            tensor<int32, [2]> var_2330_dilations_0 = const()[name = tensor<string, []>("op_2330_dilations_0"), val = tensor<int32, [2]>([1, 1])];
            tensor<int32, []> var_2330_groups_0 = const()[name = tensor<string, []>("op_2330_groups_0"), val = tensor<int32, []>(1)];
            tensor<fp16, [768, 3072, 1, 1]> blocks_10_mlp_2_weight_to_fp16 = const()[name = tensor<string, []>("blocks_10_mlp_2_weight_to_fp16"), val = tensor<fp16, [768, 3072, 1, 1]>(BLOBFILE(path = tensor<string, []>("@model_path/weights/weight.bin"), offset = tensor<uint64, []>(157421632)))];
            tensor<fp16, [768]> blocks_10_mlp_2_bias_to_fp16 = const()[name = tensor<string, []>("blocks_10_mlp_2_bias_to_fp16"), val = tensor<fp16, [768]>(BLOBFILE(path = tensor<string, []>("@model_path/weights/weight.bin"), offset = tensor<uint64, []>(162140288)))];
            tensor<fp16, [1, 768, 1, 1500]> var_2330_cast_fp16 = conv(bias = blocks_10_mlp_2_bias_to_fp16, dilations = var_2330_dilations_0, groups = var_2330_groups_0, pad = var_2330_pad_0, pad_type = var_2330_pad_type_0, strides = var_2330_strides_0, weight = blocks_10_mlp_2_weight_to_fp16, x = input_111_cast_fp16)[name = tensor<string, []>("op_2330_cast_fp16")];
            tensor<fp16, [1, 768, 1, 1500]> inputs_45_cast_fp16 = add(x = inputs_43_cast_fp16, y = var_2330_cast_fp16)[name = tensor<string, []>("inputs_45_cast_fp16")];
            tensor<int32, []> var_2339 = const()[name = tensor<string, []>("op_2339"), val = tensor<int32, []>(1)];
            tensor<int32, [1]> input_113_axes_0 = const()[name = tensor<string, []>("input_113_axes_0"), val = tensor<int32, [1]>([1])];
            tensor<fp16, [768]> input_113_gamma_0_to_fp16 = const()[name = tensor<string, []>("input_113_gamma_0_to_fp16"), val = tensor<fp16, [768]>(BLOBFILE(path = tensor<string, []>("@model_path/weights/weight.bin"), offset = tensor<uint64, []>(162141888)))];
            tensor<fp16, [768]> input_113_beta_0_to_fp16 = const()[name = tensor<string, []>("input_113_beta_0_to_fp16"), val = tensor<fp16, [768]>(BLOBFILE(path = tensor<string, []>("@model_path/weights/weight.bin"), offset = tensor<uint64, []>(162143488)))];
            tensor<fp16, []> var_2355_to_fp16 = const()[name = tensor<string, []>("op_2355_to_fp16"), val = tensor<fp16, []>(0x1.5p-17)];
            tensor<fp16, [1, 768, 1, 1500]> input_113_cast_fp16 = layer_norm(axes = input_113_axes_0, beta = input_113_beta_0_to_fp16, epsilon = var_2355_to_fp16, gamma = input_113_gamma_0_to_fp16, x = inputs_45_cast_fp16)[name = tensor<string, []>("input_113_cast_fp16")];
            tensor<string, []> q_pad_type_0 = const()[name = tensor<string, []>("q_pad_type_0"), val = tensor<string, []>("valid")];
            tensor<int32, [2]> q_strides_0 = const()[name = tensor<string, []>("q_strides_0"), val = tensor<int32, [2]>([1, 1])];
            tensor<int32, [4]> q_pad_0 = const()[name = tensor<string, []>("q_pad_0"), val = tensor<int32, [4]>([0, 0, 0, 0])];
            tensor<int32, [2]> q_dilations_0 = const()[name = tensor<string, []>("q_dilations_0"), val = tensor<int32, [2]>([1, 1])];
            tensor<int32, []> q_groups_0 = const()[name = tensor<string, []>("q_groups_0"), val = tensor<int32, []>(1)];
            tensor<fp16, [768, 768, 1, 1]> var_2390_weight_0_to_fp16 = const()[name = tensor<string, []>("op_2390_weight_0_to_fp16"), val = tensor<fp16, [768, 768, 1, 1]>(BLOBFILE(path = tensor<string, []>("@model_path/weights/weight.bin"), offset = tensor<uint64, []>(162145088)))];
            tensor<fp16, [768]> var_2390_bias_0_to_fp16 = const()[name = tensor<string, []>("op_2390_bias_0_to_fp16"), val = tensor<fp16, [768]>(BLOBFILE(path = tensor<string, []>("@model_path/weights/weight.bin"), offset = tensor<uint64, []>(163324800)))];
            tensor<fp16, [1, 768, 1, 1500]> var_2390_cast_fp16 = conv(bias = var_2390_bias_0_to_fp16, dilations = q_dilations_0, groups = q_groups_0, pad = q_pad_0, pad_type = q_pad_type_0, strides = q_strides_0, weight = var_2390_weight_0_to_fp16, x = input_113_cast_fp16)[name = tensor<string, []>("op_2390_cast_fp16")];
            tensor<string, []> k_pad_type_0 = const()[name = tensor<string, []>("k_pad_type_0"), val = tensor<string, []>("valid")];
            tensor<int32, [2]> k_strides_0 = const()[name = tensor<string, []>("k_strides_0"), val = tensor<int32, [2]>([1, 1])];
            tensor<int32, [4]> k_pad_0 = const()[name = tensor<string, []>("k_pad_0"), val = tensor<int32, [4]>([0, 0, 0, 0])];
            tensor<int32, [2]> k_dilations_0 = const()[name = tensor<string, []>("k_dilations_0"), val = tensor<int32, [2]>([1, 1])];
            tensor<int32, []> k_groups_0 = const()[name = tensor<string, []>("k_groups_0"), val = tensor<int32, []>(1)];
            tensor<fp16, [768, 768, 1, 1]> blocks_11_attn_key_weight_to_fp16 = const()[name = tensor<string, []>("blocks_11_attn_key_weight_to_fp16"), val = tensor<fp16, [768, 768, 1, 1]>(BLOBFILE(path = tensor<string, []>("@model_path/weights/weight.bin"), offset = tensor<uint64, []>(163326400)))];
            tensor<fp16, [1, 768, 1, 1500]> k_cast_fp16 = conv(dilations = k_dilations_0, groups = k_groups_0, pad = k_pad_0, pad_type = k_pad_type_0, strides = k_strides_0, weight = blocks_11_attn_key_weight_to_fp16, x = input_113_cast_fp16)[name = tensor<string, []>("k_cast_fp16")];
            tensor<string, []> var_2388_pad_type_0 = const()[name = tensor<string, []>("op_2388_pad_type_0"), val = tensor<string, []>("valid")];
            tensor<int32, [2]> var_2388_strides_0 = const()[name = tensor<string, []>("op_2388_strides_0"), val = tensor<int32, [2]>([1, 1])];
            tensor<int32, [4]> var_2388_pad_0 = const()[name = tensor<string, []>("op_2388_pad_0"), val = tensor<int32, [4]>([0, 0, 0, 0])];
            tensor<int32, [2]> var_2388_dilations_0 = const()[name = tensor<string, []>("op_2388_dilations_0"), val = tensor<int32, [2]>([1, 1])];
            tensor<int32, []> var_2388_groups_0 = const()[name = tensor<string, []>("op_2388_groups_0"), val = tensor<int32, []>(1)];
            tensor<fp16, [768, 768, 1, 1]> blocks_11_attn_value_weight_to_fp16 = const()[name = tensor<string, []>("blocks_11_attn_value_weight_to_fp16"), val = tensor<fp16, [768, 768, 1, 1]>(BLOBFILE(path = tensor<string, []>("@model_path/weights/weight.bin"), offset = tensor<uint64, []>(164506112)))];
            tensor<fp16, [768]> blocks_11_attn_value_bias_to_fp16 = const()[name = tensor<string, []>("blocks_11_attn_value_bias_to_fp16"), val = tensor<fp16, [768]>(BLOBFILE(path = tensor<string, []>("@model_path/weights/weight.bin"), offset = tensor<uint64, []>(165685824)))];
            tensor<fp16, [1, 768, 1, 1500]> var_2388_cast_fp16 = conv(bias = blocks_11_attn_value_bias_to_fp16, dilations = var_2388_dilations_0, groups = var_2388_groups_0, pad = var_2388_pad_0, pad_type = var_2388_pad_type_0, strides = var_2388_strides_0, weight = blocks_11_attn_value_weight_to_fp16, x = input_113_cast_fp16)[name = tensor<string, []>("op_2388_cast_fp16")];
            tensor<int32, [12]> tile_33 = const()[name = tensor<string, []>("tile_33"), val = tensor<int32, [12]>([64, 64, 64, 64, 64, 64, 64, 64, 64, 64, 64, 64])];
            tensor<int32, []> var_2391_axis_0 = const()[name = tensor<string, []>("op_2391_axis_0"), val = tensor<int32, []>(1)];
            tensor<fp16, [1, 64, 1, 1500]> var_2391_cast_fp16_0, tensor<fp16, [1, 64, 1, 1500]> var_2391_cast_fp16_1, tensor<fp16, [1, 64, 1, 1500]> var_2391_cast_fp16_2, tensor<fp16, [1, 64, 1, 1500]> var_2391_cast_fp16_3, tensor<fp16, [1, 64, 1, 1500]> var_2391_cast_fp16_4, tensor<fp16, [1, 64, 1, 1500]> var_2391_cast_fp16_5, tensor<fp16, [1, 64, 1, 1500]> var_2391_cast_fp16_6, tensor<fp16, [1, 64, 1, 1500]> var_2391_cast_fp16_7, tensor<fp16, [1, 64, 1, 1500]> var_2391_cast_fp16_8, tensor<fp16, [1, 64, 1, 1500]> var_2391_cast_fp16_9, tensor<fp16, [1, 64, 1, 1500]> var_2391_cast_fp16_10, tensor<fp16, [1, 64, 1, 1500]> var_2391_cast_fp16_11 = split(axis = var_2391_axis_0, split_sizes = tile_33, x = var_2390_cast_fp16)[name = tensor<string, []>("op_2391_cast_fp16")];
            tensor<int32, [4]> var_2404_perm_0 = const()[name = tensor<string, []>("op_2404_perm_0"), val = tensor<int32, [4]>([0, 3, 2, 1])];
            tensor<int32, [12]> tile_34 = const()[name = tensor<string, []>("tile_34"), val = tensor<int32, [12]>([64, 64, 64, 64, 64, 64, 64, 64, 64, 64, 64, 64])];
            tensor<int32, []> var_2405_axis_0 = const()[name = tensor<string, []>("op_2405_axis_0"), val = tensor<int32, []>(3)];
            tensor<fp16, [1, 1500, 1, 768]> var_2404_cast_fp16 = transpose(perm = var_2404_perm_0, x = k_cast_fp16)[name = tensor<string, []>("transpose_1")];
            tensor<fp16, [1, 1500, 1, 64]> var_2405_cast_fp16_0, tensor<fp16, [1, 1500, 1, 64]> var_2405_cast_fp16_1, tensor<fp16, [1, 1500, 1, 64]> var_2405_cast_fp16_2, tensor<fp16, [1, 1500, 1, 64]> var_2405_cast_fp16_3, tensor<fp16, [1, 1500, 1, 64]> var_2405_cast_fp16_4, tensor<fp16, [1, 1500, 1, 64]> var_2405_cast_fp16_5, tensor<fp16, [1, 1500, 1, 64]> var_2405_cast_fp16_6, tensor<fp16, [1, 1500, 1, 64]> var_2405_cast_fp16_7, tensor<fp16, [1, 1500, 1, 64]> var_2405_cast_fp16_8, tensor<fp16, [1, 1500, 1, 64]> var_2405_cast_fp16_9, tensor<fp16, [1, 1500, 1, 64]> var_2405_cast_fp16_10, tensor<fp16, [1, 1500, 1, 64]> var_2405_cast_fp16_11 = split(axis = var_2405_axis_0, split_sizes = tile_34, x = var_2404_cast_fp16)[name = tensor<string, []>("op_2405_cast_fp16")];
            tensor<int32, [12]> tile_35 = const()[name = tensor<string, []>("tile_35"), val = tensor<int32, [12]>([64, 64, 64, 64, 64, 64, 64, 64, 64, 64, 64, 64])];
            tensor<int32, []> var_2418_axis_0 = const()[name = tensor<string, []>("op_2418_axis_0"), val = tensor<int32, []>(1)];
            tensor<fp16, [1, 64, 1, 1500]> var_2418_cast_fp16_0, tensor<fp16, [1, 64, 1, 1500]> var_2418_cast_fp16_1, tensor<fp16, [1, 64, 1, 1500]> var_2418_cast_fp16_2, tensor<fp16, [1, 64, 1, 1500]> var_2418_cast_fp16_3, tensor<fp16, [1, 64, 1, 1500]> var_2418_cast_fp16_4, tensor<fp16, [1, 64, 1, 1500]> var_2418_cast_fp16_5, tensor<fp16, [1, 64, 1, 1500]> var_2418_cast_fp16_6, tensor<fp16, [1, 64, 1, 1500]> var_2418_cast_fp16_7, tensor<fp16, [1, 64, 1, 1500]> var_2418_cast_fp16_8, tensor<fp16, [1, 64, 1, 1500]> var_2418_cast_fp16_9, tensor<fp16, [1, 64, 1, 1500]> var_2418_cast_fp16_10, tensor<fp16, [1, 64, 1, 1500]> var_2418_cast_fp16_11 = split(axis = var_2418_axis_0, split_sizes = tile_35, x = var_2388_cast_fp16)[name = tensor<string, []>("op_2418_cast_fp16")];
            tensor<string, []> aw_265_equation_0 = const()[name = tensor<string, []>("aw_265_equation_0"), val = tensor<string, []>("bkhc,bchq->bkhq")];
            tensor<fp16, [1, 1500, 1, 1500]> aw_265_cast_fp16 = einsum(equation = aw_265_equation_0, values = (var_2405_cast_fp16_0, var_2391_cast_fp16_0))[name = tensor<string, []>("aw_265_cast_fp16")];
            tensor<string, []> aw_267_equation_0 = const()[name = tensor<string, []>("aw_267_equation_0"), val = tensor<string, []>("bkhc,bchq->bkhq")];
            tensor<fp16, [1, 1500, 1, 1500]> aw_267_cast_fp16 = einsum(equation = aw_267_equation_0, values = (var_2405_cast_fp16_1, var_2391_cast_fp16_1))[name = tensor<string, []>("aw_267_cast_fp16")];
            tensor<string, []> aw_269_equation_0 = const()[name = tensor<string, []>("aw_269_equation_0"), val = tensor<string, []>("bkhc,bchq->bkhq")];
            tensor<fp16, [1, 1500, 1, 1500]> aw_269_cast_fp16 = einsum(equation = aw_269_equation_0, values = (var_2405_cast_fp16_2, var_2391_cast_fp16_2))[name = tensor<string, []>("aw_269_cast_fp16")];
            tensor<string, []> aw_271_equation_0 = const()[name = tensor<string, []>("aw_271_equation_0"), val = tensor<string, []>("bkhc,bchq->bkhq")];
            tensor<fp16, [1, 1500, 1, 1500]> aw_271_cast_fp16 = einsum(equation = aw_271_equation_0, values = (var_2405_cast_fp16_3, var_2391_cast_fp16_3))[name = tensor<string, []>("aw_271_cast_fp16")];
            tensor<string, []> aw_273_equation_0 = const()[name = tensor<string, []>("aw_273_equation_0"), val = tensor<string, []>("bkhc,bchq->bkhq")];
            tensor<fp16, [1, 1500, 1, 1500]> aw_273_cast_fp16 = einsum(equation = aw_273_equation_0, values = (var_2405_cast_fp16_4, var_2391_cast_fp16_4))[name = tensor<string, []>("aw_273_cast_fp16")];
            tensor<string, []> aw_275_equation_0 = const()[name = tensor<string, []>("aw_275_equation_0"), val = tensor<string, []>("bkhc,bchq->bkhq")];
            tensor<fp16, [1, 1500, 1, 1500]> aw_275_cast_fp16 = einsum(equation = aw_275_equation_0, values = (var_2405_cast_fp16_5, var_2391_cast_fp16_5))[name = tensor<string, []>("aw_275_cast_fp16")];
            tensor<string, []> aw_277_equation_0 = const()[name = tensor<string, []>("aw_277_equation_0"), val = tensor<string, []>("bkhc,bchq->bkhq")];
            tensor<fp16, [1, 1500, 1, 1500]> aw_277_cast_fp16 = einsum(equation = aw_277_equation_0, values = (var_2405_cast_fp16_6, var_2391_cast_fp16_6))[name = tensor<string, []>("aw_277_cast_fp16")];
            tensor<string, []> aw_279_equation_0 = const()[name = tensor<string, []>("aw_279_equation_0"), val = tensor<string, []>("bkhc,bchq->bkhq")];
            tensor<fp16, [1, 1500, 1, 1500]> aw_279_cast_fp16 = einsum(equation = aw_279_equation_0, values = (var_2405_cast_fp16_7, var_2391_cast_fp16_7))[name = tensor<string, []>("aw_279_cast_fp16")];
            tensor<string, []> aw_281_equation_0 = const()[name = tensor<string, []>("aw_281_equation_0"), val = tensor<string, []>("bkhc,bchq->bkhq")];
            tensor<fp16, [1, 1500, 1, 1500]> aw_281_cast_fp16 = einsum(equation = aw_281_equation_0, values = (var_2405_cast_fp16_8, var_2391_cast_fp16_8))[name = tensor<string, []>("aw_281_cast_fp16")];
            tensor<string, []> aw_283_equation_0 = const()[name = tensor<string, []>("aw_283_equation_0"), val = tensor<string, []>("bkhc,bchq->bkhq")];
            tensor<fp16, [1, 1500, 1, 1500]> aw_283_cast_fp16 = einsum(equation = aw_283_equation_0, values = (var_2405_cast_fp16_9, var_2391_cast_fp16_9))[name = tensor<string, []>("aw_283_cast_fp16")];
            tensor<string, []> aw_285_equation_0 = const()[name = tensor<string, []>("aw_285_equation_0"), val = tensor<string, []>("bkhc,bchq->bkhq")];
            tensor<fp16, [1, 1500, 1, 1500]> aw_285_cast_fp16 = einsum(equation = aw_285_equation_0, values = (var_2405_cast_fp16_10, var_2391_cast_fp16_10))[name = tensor<string, []>("aw_285_cast_fp16")];
            tensor<string, []> aw_equation_0 = const()[name = tensor<string, []>("aw_equation_0"), val = tensor<string, []>("bkhc,bchq->bkhq")];
            tensor<fp16, [1, 1500, 1, 1500]> aw_cast_fp16 = einsum(equation = aw_equation_0, values = (var_2405_cast_fp16_11, var_2391_cast_fp16_11))[name = tensor<string, []>("aw_cast_fp16")];
            tensor<fp16, [1, 1500, 1, 1500]> var_2455_cast_fp16 = softmax(axis = var_2339, x = aw_265_cast_fp16)[name = tensor<string, []>("op_2455_cast_fp16")];
            tensor<fp16, [1, 1500, 1, 1500]> var_2456_cast_fp16 = softmax(axis = var_2339, x = aw_267_cast_fp16)[name = tensor<string, []>("op_2456_cast_fp16")];
            tensor<fp16, [1, 1500, 1, 1500]> var_2457_cast_fp16 = softmax(axis = var_2339, x = aw_269_cast_fp16)[name = tensor<string, []>("op_2457_cast_fp16")];
            tensor<fp16, [1, 1500, 1, 1500]> var_2458_cast_fp16 = softmax(axis = var_2339, x = aw_271_cast_fp16)[name = tensor<string, []>("op_2458_cast_fp16")];
            tensor<fp16, [1, 1500, 1, 1500]> var_2459_cast_fp16 = softmax(axis = var_2339, x = aw_273_cast_fp16)[name = tensor<string, []>("op_2459_cast_fp16")];
            tensor<fp16, [1, 1500, 1, 1500]> var_2460_cast_fp16 = softmax(axis = var_2339, x = aw_275_cast_fp16)[name = tensor<string, []>("op_2460_cast_fp16")];
            tensor<fp16, [1, 1500, 1, 1500]> var_2461_cast_fp16 = softmax(axis = var_2339, x = aw_277_cast_fp16)[name = tensor<string, []>("op_2461_cast_fp16")];
            tensor<fp16, [1, 1500, 1, 1500]> var_2462_cast_fp16 = softmax(axis = var_2339, x = aw_279_cast_fp16)[name = tensor<string, []>("op_2462_cast_fp16")];
            tensor<fp16, [1, 1500, 1, 1500]> var_2463_cast_fp16 = softmax(axis = var_2339, x = aw_281_cast_fp16)[name = tensor<string, []>("op_2463_cast_fp16")];
            tensor<fp16, [1, 1500, 1, 1500]> var_2464_cast_fp16 = softmax(axis = var_2339, x = aw_283_cast_fp16)[name = tensor<string, []>("op_2464_cast_fp16")];
            tensor<fp16, [1, 1500, 1, 1500]> var_2465_cast_fp16 = softmax(axis = var_2339, x = aw_285_cast_fp16)[name = tensor<string, []>("op_2465_cast_fp16")];
            tensor<fp16, [1, 1500, 1, 1500]> var_2466_cast_fp16 = softmax(axis = var_2339, x = aw_cast_fp16)[name = tensor<string, []>("op_2466_cast_fp16")];
            tensor<string, []> var_2468_equation_0 = const()[name = tensor<string, []>("op_2468_equation_0"), val = tensor<string, []>("bchk,bkhq->bchq")];
            tensor<fp16, [1, 64, 1, 1500]> var_2468_cast_fp16 = einsum(equation = var_2468_equation_0, values = (var_2418_cast_fp16_0, var_2455_cast_fp16))[name = tensor<string, []>("op_2468_cast_fp16")];
            tensor<string, []> var_2470_equation_0 = const()[name = tensor<string, []>("op_2470_equation_0"), val = tensor<string, []>("bchk,bkhq->bchq")];
            tensor<fp16, [1, 64, 1, 1500]> var_2470_cast_fp16 = einsum(equation = var_2470_equation_0, values = (var_2418_cast_fp16_1, var_2456_cast_fp16))[name = tensor<string, []>("op_2470_cast_fp16")];
            tensor<string, []> var_2472_equation_0 = const()[name = tensor<string, []>("op_2472_equation_0"), val = tensor<string, []>("bchk,bkhq->bchq")];
            tensor<fp16, [1, 64, 1, 1500]> var_2472_cast_fp16 = einsum(equation = var_2472_equation_0, values = (var_2418_cast_fp16_2, var_2457_cast_fp16))[name = tensor<string, []>("op_2472_cast_fp16")];
            tensor<string, []> var_2474_equation_0 = const()[name = tensor<string, []>("op_2474_equation_0"), val = tensor<string, []>("bchk,bkhq->bchq")];
            tensor<fp16, [1, 64, 1, 1500]> var_2474_cast_fp16 = einsum(equation = var_2474_equation_0, values = (var_2418_cast_fp16_3, var_2458_cast_fp16))[name = tensor<string, []>("op_2474_cast_fp16")];
            tensor<string, []> var_2476_equation_0 = const()[name = tensor<string, []>("op_2476_equation_0"), val = tensor<string, []>("bchk,bkhq->bchq")];
            tensor<fp16, [1, 64, 1, 1500]> var_2476_cast_fp16 = einsum(equation = var_2476_equation_0, values = (var_2418_cast_fp16_4, var_2459_cast_fp16))[name = tensor<string, []>("op_2476_cast_fp16")];
            tensor<string, []> var_2478_equation_0 = const()[name = tensor<string, []>("op_2478_equation_0"), val = tensor<string, []>("bchk,bkhq->bchq")];
            tensor<fp16, [1, 64, 1, 1500]> var_2478_cast_fp16 = einsum(equation = var_2478_equation_0, values = (var_2418_cast_fp16_5, var_2460_cast_fp16))[name = tensor<string, []>("op_2478_cast_fp16")];
            tensor<string, []> var_2480_equation_0 = const()[name = tensor<string, []>("op_2480_equation_0"), val = tensor<string, []>("bchk,bkhq->bchq")];
            tensor<fp16, [1, 64, 1, 1500]> var_2480_cast_fp16 = einsum(equation = var_2480_equation_0, values = (var_2418_cast_fp16_6, var_2461_cast_fp16))[name = tensor<string, []>("op_2480_cast_fp16")];
            tensor<string, []> var_2482_equation_0 = const()[name = tensor<string, []>("op_2482_equation_0"), val = tensor<string, []>("bchk,bkhq->bchq")];
            tensor<fp16, [1, 64, 1, 1500]> var_2482_cast_fp16 = einsum(equation = var_2482_equation_0, values = (var_2418_cast_fp16_7, var_2462_cast_fp16))[name = tensor<string, []>("op_2482_cast_fp16")];
            tensor<string, []> var_2484_equation_0 = const()[name = tensor<string, []>("op_2484_equation_0"), val = tensor<string, []>("bchk,bkhq->bchq")];
            tensor<fp16, [1, 64, 1, 1500]> var_2484_cast_fp16 = einsum(equation = var_2484_equation_0, values = (var_2418_cast_fp16_8, var_2463_cast_fp16))[name = tensor<string, []>("op_2484_cast_fp16")];
            tensor<string, []> var_2486_equation_0 = const()[name = tensor<string, []>("op_2486_equation_0"), val = tensor<string, []>("bchk,bkhq->bchq")];
            tensor<fp16, [1, 64, 1, 1500]> var_2486_cast_fp16 = einsum(equation = var_2486_equation_0, values = (var_2418_cast_fp16_9, var_2464_cast_fp16))[name = tensor<string, []>("op_2486_cast_fp16")];
            tensor<string, []> var_2488_equation_0 = const()[name = tensor<string, []>("op_2488_equation_0"), val = tensor<string, []>("bchk,bkhq->bchq")];
            tensor<fp16, [1, 64, 1, 1500]> var_2488_cast_fp16 = einsum(equation = var_2488_equation_0, values = (var_2418_cast_fp16_10, var_2465_cast_fp16))[name = tensor<string, []>("op_2488_cast_fp16")];
            tensor<string, []> var_2490_equation_0 = const()[name = tensor<string, []>("op_2490_equation_0"), val = tensor<string, []>("bchk,bkhq->bchq")];
            tensor<fp16, [1, 64, 1, 1500]> var_2490_cast_fp16 = einsum(equation = var_2490_equation_0, values = (var_2418_cast_fp16_11, var_2466_cast_fp16))[name = tensor<string, []>("op_2490_cast_fp16")];
            tensor<bool, []> input_115_interleave_0 = const()[name = tensor<string, []>("input_115_interleave_0"), val = tensor<bool, []>(false)];
            tensor<fp16, [1, 768, 1, 1500]> input_115_cast_fp16 = concat(axis = var_2339, interleave = input_115_interleave_0, values = (var_2468_cast_fp16, var_2470_cast_fp16, var_2472_cast_fp16, var_2474_cast_fp16, var_2476_cast_fp16, var_2478_cast_fp16, var_2480_cast_fp16, var_2482_cast_fp16, var_2484_cast_fp16, var_2486_cast_fp16, var_2488_cast_fp16, var_2490_cast_fp16))[name = tensor<string, []>("input_115_cast_fp16")];
            tensor<string, []> var_2499_pad_type_0 = const()[name = tensor<string, []>("op_2499_pad_type_0"), val = tensor<string, []>("valid")];
            tensor<int32, [2]> var_2499_strides_0 = const()[name = tensor<string, []>("op_2499_strides_0"), val = tensor<int32, [2]>([1, 1])];
            tensor<int32, [4]> var_2499_pad_0 = const()[name = tensor<string, []>("op_2499_pad_0"), val = tensor<int32, [4]>([0, 0, 0, 0])];
            tensor<int32, [2]> var_2499_dilations_0 = const()[name = tensor<string, []>("op_2499_dilations_0"), val = tensor<int32, [2]>([1, 1])];
            tensor<int32, []> var_2499_groups_0 = const()[name = tensor<string, []>("op_2499_groups_0"), val = tensor<int32, []>(1)];
            tensor<fp16, [768, 768, 1, 1]> blocks_11_attn_out_weight_to_fp16 = const()[name = tensor<string, []>("blocks_11_attn_out_weight_to_fp16"), val = tensor<fp16, [768, 768, 1, 1]>(BLOBFILE(path = tensor<string, []>("@model_path/weights/weight.bin"), offset = tensor<uint64, []>(165687424)))];
            tensor<fp16, [768]> blocks_11_attn_out_bias_to_fp16 = const()[name = tensor<string, []>("blocks_11_attn_out_bias_to_fp16"), val = tensor<fp16, [768]>(BLOBFILE(path = tensor<string, []>("@model_path/weights/weight.bin"), offset = tensor<uint64, []>(166867136)))];
            tensor<fp16, [1, 768, 1, 1500]> var_2499_cast_fp16 = conv(bias = blocks_11_attn_out_bias_to_fp16, dilations = var_2499_dilations_0, groups = var_2499_groups_0, pad = var_2499_pad_0, pad_type = var_2499_pad_type_0, strides = var_2499_strides_0, weight = blocks_11_attn_out_weight_to_fp16, x = input_115_cast_fp16)[name = tensor<string, []>("op_2499_cast_fp16")];
            tensor<fp16, [1, 768, 1, 1500]> inputs_47_cast_fp16 = add(x = inputs_45_cast_fp16, y = var_2499_cast_fp16)[name = tensor<string, []>("inputs_47_cast_fp16")];
            tensor<int32, [1]> input_117_axes_0 = const()[name = tensor<string, []>("input_117_axes_0"), val = tensor<int32, [1]>([1])];
            tensor<fp16, [768]> input_117_gamma_0_to_fp16 = const()[name = tensor<string, []>("input_117_gamma_0_to_fp16"), val = tensor<fp16, [768]>(BLOBFILE(path = tensor<string, []>("@model_path/weights/weight.bin"), offset = tensor<uint64, []>(166868736)))];
            tensor<fp16, [768]> input_117_beta_0_to_fp16 = const()[name = tensor<string, []>("input_117_beta_0_to_fp16"), val = tensor<fp16, [768]>(BLOBFILE(path = tensor<string, []>("@model_path/weights/weight.bin"), offset = tensor<uint64, []>(166870336)))];
            tensor<fp16, []> var_2509_to_fp16 = const()[name = tensor<string, []>("op_2509_to_fp16"), val = tensor<fp16, []>(0x1.5p-17)];
            tensor<fp16, [1, 768, 1, 1500]> input_117_cast_fp16 = layer_norm(axes = input_117_axes_0, beta = input_117_beta_0_to_fp16, epsilon = var_2509_to_fp16, gamma = input_117_gamma_0_to_fp16, x = inputs_47_cast_fp16)[name = tensor<string, []>("input_117_cast_fp16")];
            tensor<string, []> input_119_pad_type_0 = const()[name = tensor<string, []>("input_119_pad_type_0"), val = tensor<string, []>("valid")];
            tensor<int32, [2]> input_119_strides_0 = const()[name = tensor<string, []>("input_119_strides_0"), val = tensor<int32, [2]>([1, 1])];
            tensor<int32, [4]> input_119_pad_0 = const()[name = tensor<string, []>("input_119_pad_0"), val = tensor<int32, [4]>([0, 0, 0, 0])];
            tensor<int32, [2]> input_119_dilations_0 = const()[name = tensor<string, []>("input_119_dilations_0"), val = tensor<int32, [2]>([1, 1])];
            tensor<int32, []> input_119_groups_0 = const()[name = tensor<string, []>("input_119_groups_0"), val = tensor<int32, []>(1)];
            tensor<fp16, [3072, 768, 1, 1]> blocks_11_mlp_0_weight_to_fp16 = const()[name = tensor<string, []>("blocks_11_mlp_0_weight_to_fp16"), val = tensor<fp16, [3072, 768, 1, 1]>(BLOBFILE(path = tensor<string, []>("@model_path/weights/weight.bin"), offset = tensor<uint64, []>(166871936)))];
            tensor<fp16, [3072]> blocks_11_mlp_0_bias_to_fp16 = const()[name = tensor<string, []>("blocks_11_mlp_0_bias_to_fp16"), val = tensor<fp16, [3072]>(BLOBFILE(path = tensor<string, []>("@model_path/weights/weight.bin"), offset = tensor<uint64, []>(171590592)))];
            tensor<fp16, [1, 3072, 1, 1500]> input_119_cast_fp16 = conv(bias = blocks_11_mlp_0_bias_to_fp16, dilations = input_119_dilations_0, groups = input_119_groups_0, pad = input_119_pad_0, pad_type = input_119_pad_type_0, strides = input_119_strides_0, weight = blocks_11_mlp_0_weight_to_fp16, x = input_117_cast_fp16)[name = tensor<string, []>("input_119_cast_fp16")];
            tensor<string, []> input_mode_0 = const()[name = tensor<string, []>("input_mode_0"), val = tensor<string, []>("EXACT")];
            tensor<fp16, [1, 3072, 1, 1500]> input_cast_fp16 = gelu(mode = input_mode_0, x = input_119_cast_fp16)[name = tensor<string, []>("input_cast_fp16")];
            tensor<string, []> var_2535_pad_type_0 = const()[name = tensor<string, []>("op_2535_pad_type_0"), val = tensor<string, []>("valid")];
            tensor<int32, [2]> var_2535_strides_0 = const()[name = tensor<string, []>("op_2535_strides_0"), val = tensor<int32, [2]>([1, 1])];
            tensor<int32, [4]> var_2535_pad_0 = const()[name = tensor<string, []>("op_2535_pad_0"), val = tensor<int32, [4]>([0, 0, 0, 0])];
            tensor<int32, [2]> var_2535_dilations_0 = const()[name = tensor<string, []>("op_2535_dilations_0"), val = tensor<int32, [2]>([1, 1])];
            tensor<int32, []> var_2535_groups_0 = const()[name = tensor<string, []>("op_2535_groups_0"), val = tensor<int32, []>(1)];
            tensor<fp16, [768, 3072, 1, 1]> blocks_11_mlp_2_weight_to_fp16 = const()[name = tensor<string, []>("blocks_11_mlp_2_weight_to_fp16"), val = tensor<fp16, [768, 3072, 1, 1]>(BLOBFILE(path = tensor<string, []>("@model_path/weights/weight.bin"), offset = tensor<uint64, []>(171596800)))];
            tensor<fp16, [768]> blocks_11_mlp_2_bias_to_fp16 = const()[name = tensor<string, []>("blocks_11_mlp_2_bias_to_fp16"), val = tensor<fp16, [768]>(BLOBFILE(path = tensor<string, []>("@model_path/weights/weight.bin"), offset = tensor<uint64, []>(176315456)))];
            tensor<fp16, [1, 768, 1, 1500]> var_2535_cast_fp16 = conv(bias = blocks_11_mlp_2_bias_to_fp16, dilations = var_2535_dilations_0, groups = var_2535_groups_0, pad = var_2535_pad_0, pad_type = var_2535_pad_type_0, strides = var_2535_strides_0, weight = blocks_11_mlp_2_weight_to_fp16, x = input_cast_fp16)[name = tensor<string, []>("op_2535_cast_fp16")];
            tensor<fp16, [1, 768, 1, 1500]> inputs_cast_fp16 = add(x = inputs_47_cast_fp16, y = var_2535_cast_fp16)[name = tensor<string, []>("inputs_cast_fp16")];
            tensor<int32, [1]> x_axes_0 = const()[name = tensor<string, []>("x_axes_0"), val = tensor<int32, [1]>([1])];
            tensor<fp16, [768]> x_gamma_0_to_fp16 = const()[name = tensor<string, []>("x_gamma_0_to_fp16"), val = tensor<fp16, [768]>(BLOBFILE(path = tensor<string, []>("@model_path/weights/weight.bin"), offset = tensor<uint64, []>(176317056)))];
            tensor<fp16, [768]> x_beta_0_to_fp16 = const()[name = tensor<string, []>("x_beta_0_to_fp16"), val = tensor<fp16, [768]>(BLOBFILE(path = tensor<string, []>("@model_path/weights/weight.bin"), offset = tensor<uint64, []>(176318656)))];
            tensor<fp16, []> var_2549_to_fp16 = const()[name = tensor<string, []>("op_2549_to_fp16"), val = tensor<fp16, []>(0x1.5p-17)];
            tensor<fp16, [1, 768, 1, 1500]> x_cast_fp16 = layer_norm(axes = x_axes_0, beta = x_beta_0_to_fp16, epsilon = var_2549_to_fp16, gamma = x_gamma_0_to_fp16, x = inputs_cast_fp16)[name = tensor<string, []>("x_cast_fp16")];
            tensor<int32, [1]> var_2560_axes_0 = const()[name = tensor<string, []>("op_2560_axes_0"), val = tensor<int32, [1]>([2])];
            tensor<fp16, [1, 768, 1500]> var_2560_cast_fp16 = squeeze(axes = var_2560_axes_0, x = x_cast_fp16)[name = tensor<string, []>("op_2560_cast_fp16")];
            tensor<int32, [3]> var_2563_perm_0 = const()[name = tensor<string, []>("op_2563_perm_0"), val = tensor<int32, [3]>([0, 2, 1])];
            tensor<string, []> var_2563_cast_fp16_to_fp32_dtype_0 = const()[name = tensor<string, []>("op_2563_cast_fp16_to_fp32_dtype_0"), val = tensor<string, []>("fp32")];
            tensor<fp16, [1, 1500, 768]> var_2563_cast_fp16 = transpose(perm = var_2563_perm_0, x = var_2560_cast_fp16)[name = tensor<string, []>("transpose_0")];
            tensor<fp32, [1, 1500, 768]> output = cast(dtype = var_2563_cast_fp16_to_fp32_dtype_0, x = var_2563_cast_fp16)[name = tensor<string, []>("cast_50")];
        } -> (output);
}